checkpoint.pth (torch, 93173 bytes, 16 tensors)

fc1.weight f4 [256, 16]
2.1452458 0.065560214 -0.23960508 -0.68501616 -0.80004305 -2.0990193 -1.1601617 -1.6056687
-3.3759885 -5.5092006 -6.73592 -8.52721 -8.003113 -4.9136667 -4.505446 -4.5388756
2.0760396 0.07618285 0.38218608 -0.12445965 -0.7409988 -1.3648543 -0.20201853 -0.44689777
-3.0613153 -2.9160042 -6.57413 -6.8657966 -10.024283 -6.449013 -5.8926816 -5.9690833
0.00627589 0.24057312 -0.072507076 0.47338593 -0.3670882 -0.4160908 -0.3575783 -0.32039034
-0.17007485 -0.3172639 -0.21309868 -0.77694905 -0.54770166 -0.06021999 0.23843108 0.9949411
1.3621007 -0.29490313 0.22152837 0.076010406 -0.90004206 -0.85859287 0.1149102 -0.0003660027
-1.8681446 -0.897528 -3.8075986 -3.9282207 -9.529381 -5.315661 -4.5109572 -4.811647
0.9264587 0.8360425 -0.11728104 0.70679593 0.7603409 -0.1641481 -0.1195606 -0.3090037
1.146024 -0.14932567 0.16297439 -1.1942906 -2.1143003 0.2688695 -0.28352645 1.1143819
0.1619228 0.5890582 -0.09788476 0.7728469 0.26161397 -0.502944 -0.07736928 -0.53968257
0.4158427 -0.06241888 0.014222127 -0.5629329 -1.4274653 0.17707223 -0.080332965 1.1337364
1.8161461 0.18934551 0.39549574 0.047166485 -0.6439516 -0.8963399 0.21582691 -0.1124044
-2.2003224 -1.5546559 -5.0361967 -6.51857 -9.668417 -5.977872 -4.9994254 -5.4791126
0.03816974 0.16448519 -0.21109384 -0.12231082 -0.024763286 -0.06390706 0.12034419 -0.14598301
-0.20690578 0.09799257 -0.00954172 -0.06617108 -0.10510999 -0.20699051 -0.21169937 0.14175001
2.0630164 -0.05050521 -0.30095527 -0.74187815 -1.0259414 -2.461551 -1.2004285 -1.6902326
-3.8592322 -5.8141475 -7.4388375 -8.501594 -7.98053 -5.2340155 -4.803329 -4.8860407
0.00019673901 0.24450076 -0.30215767 0.05215192 -0.42152092 -0.4702771 -0.19923261 -0.5628757
0.19948424 -0.32921353 -0.17167939 -0.67980444 -0.44995064 0.046032313 0.43245104 1.1211269
1.9136347 -0.34164453 -0.15256599 -0.5083639 -1.0745275 -2.5223334 -1.2257113 -1.5615542
-3.8577526 -5.616781 -7.2639914 -8.934829 -8.176377 -5.532724 -4.9227386 -4.7538886
-0.15474527 0.270318 -0.050377805 0.6095215 0.117340945 -0.58948225 -0.16013008 -0.54206
0.3480397 -0.104106985 -0.2907713 -0.64378965 -0.77500564 0.22487247 0.26847664 1.0525328
1.0834113 1.0771416 -0.29226446 0.3065798 0.5853302 -0.17359908 -0.0639989 -0.5342347
0.717844 0.009300759 0.12962465 -1.005384 -1.7901483 0.5999489 -0.2732036 1.1587511
-0.2362317 -0.06575305 -0.15860681 -0.21751276 0.044419438 -0.11671142 -0.10746022 -0.24958606
-0.22437732 0.15545648 0.21923749 0.04220035 -0.14340858 0.05154617 -0.16110004 0.052049655
-0.18067488 0.25721174 -0.14279854 0.38380468 -0.5348139 -0.47373012 -0.113346584 -0.4057803
0.17268461 -0.4143403 -0.3696529 -0.6843741 -0.29011196 0.18781854 0.52605027 0.86353046
2.3108695 -0.093438976 -0.21936607 -0.78161174 -0.80847496 -2.3500466 -1.2486396 -1.6406034
-3.3808277 -5.5556912 -7.159446 -9.174711 -8.289308 -5.1585793 -4.598206 -4.876546
00000000: b54b 0940 6f44 863d 095b 75be 385d 2fbf
00000010: 9fcf 4cbf 5556 06c0 2e80 94bf 8d86 cdbf
00000020: 3210 58c0 5f4b b0c0 a88c d7c0 746f 08c1
00000030: c00c 00c1 c23c 9dc0 9d2c 90c0 783e 91c0
00000040: d5dd 0440 c105 9c3d e5ad c33e b3e4 febd
00000050: 19b2 3dbf 8cb3 aebf f2dd 4ebe c9cf e4be
00000060: 97ec 43c0 d09f 3ac0 465f d2c0 9bb4 dbc0
00000070: 7763 20c1 515e cec0 d990 bcc0 bb02 bfc0
00000080: fba5 cd3b cd58 763e 977e 94bd a45f f23e
00000090: fcf2 bbbe da09 d5be 8114 b7be 340a a4be
000000a0: 1a28 2ebe 6a70 a2be 8a36 5abe 22e6 46bf
000000b0: 2d36 0cbf 3ca9 76bd 4727 743e 76b4 7e3f
000000c0: 5159 ae3f 8bfd 96be 55d8 623e 58ab 9b3d
000000d0: 2869 66bf becc 5bbf 0a56 eb3d 0de4 bfb9
000000e0: 5d1f efbf 65c4 65bf b2af 73c0 f867 7bc0
000000f0: 5878 18c1 e519 aac0 c359 90c0 03f9 99c0
00000100: 662c 6d3f e206 563f 0b31 f0bd 94f0 343f
00000110: b4a5 423f 7116 28be 30dc f4bd bc35 9ebe
00000120: eab0 923f d4e8 18be c2e2 263e 84de 98bf
00000130: b250 07c0 43a9 893e 612a 91be 11a4 8e3f
00000140: 17cf 253e 85cc 163f ce77 c8bd 4bd9 453f
00000150: 44f2 853e f0c0 00bf c973 9ebd a328 0abf
00000160: 56e9 d43e f1aa 7fbd ed03 693c 5f1c 10bf
00000170: 2fb7 b6bf 6c52 353e 9c85 a4bd 461e 913f
00000180: 7a77 e83f cae3 413e 6b7e ca3e a531 413d
00000190: 03da 24bf 8876 65bf bb01 5d3e 4734 e6bd
000001a0: 15d2 0cc0 f7fe c6bf 8628 a1c0 2098 d0c0
000001b0: d6b1 1ac1 ba4a bfc0 4bfb 9fc0 e454 afc0
000001c0: e057 1c3d ce6e 283e fc28 58be 187e fabd
000001d0: 60dc cabc b4e1 82bd 0477 f63d 927c 15be
000001e0: 1cdf 53be 54b0 c83d e054 1cbc b484 87bd
000001f0: e843 d7bd 52f5 53be b8c7 58be ea26 113e
00000200: 7608 0440 8dde 4ebd cf16 9abe baeb 3dbf
00000210: 0c52 83bf 0d8a 1dc0 a4a7 99bf 8b59 d8bf
00000220: a9fd 76c0 7f0d bac0 f50a eec0 8706 08c1
00000230: 8060 ffc0 0e7d a7c0 dfb4 99c0 725a 9cc0
00000240: ba4b 4e39 685e 7a3e 69b4 9abe 409d 553d
00000250: 97d1 d7be 29c8 f0be a203 4cbe 9f18 10bf
00000260: 9945 4c3e ad8e a8be b9cc 2fbe aa07 2ebf
00000270: ee5f e6be 618c 3c3d 396a dd3e 1681 8f3f
00000280: fbf1 f43f 08ec aebe 423a 1cbe 2324 02bf
00000290: 1e8a 89bf e96d 21c0 1ce4 9cbf 02e1 c7bf
000002a0: 6be5 76c0 acbc b3c0 9e72 e8c0 0ff5 0ec1
000002b0: 71d2 02c1 130c b1c0 1387 9dc0 db1f 98c0
000002c0: 8b75 1ebe 1f67 8a3e f558 4ebd 9a09 1c3f
000002d0: 7350 f03d 4fe8 16bf 24f9 23be 72c4 0abf
000002e0: 4232 b23e 0b36 d5bd fadf 94be 66cf 24bf
000002f0: c566 46bf f844 663e c575 893e 65b9 863f
00000300: 39ad 8a3f c7df 893f b0a3 95be 07f8 9c3e
00000310: 33d8 153f f5c3 31be db11 83bd 9bc3 08bf
00000320: a0c4 373f 3662 183c 53bc 043e 6cb0 80bf
00000330: 9423 e5bf 4096 193f 58e1 8bbe f551 943f
00000340: b9e6 71be 89a9 86bd d369 22be aabb 5ebe
00000350: 28f1 353d 6606 efbd 1b14 dcbd 7d93 7fbe
00000360: 2bc3 65be fc2f 1f3e cb7f 603e 46da 2c3d
00000370: b3d9 12be 1422 533d 69f7 24be 0532 553d
00000380: d602 39be 42b1 833e c839 12be 0c82 c43e
00000390: 90e9 08bf c18c f2be 4122 e8bd 6fc2 cfbe
000003a0: 3cd4 303e 6924 d4be 2543 bdbe 2433 2fbf
000003b0: 8e89 94be 8153 403e 3bab 063f 5510 5d3f
000003c0: 49e5 1340 ef5c bfbd 80a1 60be b517 48bf
000003d0: 37f8 4ebf 2a67 16c0 6cd3 9fbf 4bff d1bf
000003e0: 7b5f 58c0 39c8 b1c0 2e1a e5c0 9ecb 12c1
000003f0: 01a1 04c1 1513 a5c0 8124 93c0 aa0c 9cc0

fc1.bias f4 [256]
0.9262832 0.94376403 1.808623 0.8980318 1.1565939 1.3511252 0.6888023 -0.24271289
1.102588 1.8081667 1.2222433 1.5428659 1.1691023 -0.11674039 1.8764164 0.9783062
-0.122091316 0.9495553 1.087044 1.4851037 0.90938646 1.1898359 1.701943 -0.2280444
1.490369 0.8846494 1.2791623 1.5975224 1.4967828 0.87509555 1.4051322 1.5721204
1.7235014 1.3135208 1.0550162 -0.23706454 1.4154674 1.7964791 1.1845413 -0.23378783
1.0968254 1.4563339 1.1290704 1.0330288 1.3639516 1.5107344 0.9350671 1.4091939
1.3204802 1.9276583 -0.24027428 1.3959168 1.0286293 0.979422 1.6500878 1.7193034
1.60603 1.1012275 1.6683977 1.9749721 -0.20371664 1.6641322 0.6411764 -0.22755271
-0.13613105 1.6228956 1.6239177 1.2332047 1.4324882 -0.13429534 0.9974024 1.7184231
1.2375416 1.6326101 1.8640987 1.3587326 -0.23540008 1.6722536 1.348221 1.0052468
0.758563 1.740533 0.7519508 1.0623183 1.0007706 1.2086016 0.98964435 0.8288045
1.136674 0.92646 -0.2443735 -0.20810395 0.99658537 0.6677497 0.94406086 1.527673
1.526436 0.9690614 0.7842646 0.8882858 -0.2311194 -0.22884539 1.0385189 1.1091958
0.98278284 -0.29122525 1.6095845 1.9967546 1.4879915 2.0454502 1.561075 1.0788579
1.5868914 1.3562676 1.4210404 -0.24621102 1.6457523 0.9233233 0.79460335 1.2845988
1.8156714 1.7724733 1.7389811 1.7237993 1.4488832 0.96968305 1.1709653 -0.23587683
0.9865082 1.070915 -0.18864515 1.419548 1.1526914 1.8488168 1.0515682 1.6188624
1.5254617 1.5909219 1.2589552 1.7456659 1.3714364 1.956861 1.2177293 1.0404558
0.9127963 1.0301536 -0.15723708 0.18458048 1.227317 -0.06552172 0.94158065 1.6453016
1.4250094 0.9746521 1.3207866 1.7998965 0.9233291 -0.20018363 1.9968421 1.3954184
0.97988856 1.5979986 1.5561856 -0.198991 -0.13160037 1.1067826 -0.11819373 1.057432
1.5950773 1.1415815 1.3927115 1.8504248 1.4009236 0.9884567 1.0604093 1.9982027
1.1679536 -0.22923742 1.140842 -0.30668938 0.8507927 0.90370196 1.1944662 1.1558489
0.92090344 1.537191 -0.24341497 1.1176087 -0.14791936 -0.23261033 1.7111906 0.9778504
0.9813117 0.82325625 1.9621055 0.8876742 0.99216145 1.8512214 1.6740278 -0.17349872
1.3946662 0.998708 1.1203259 1.4940313 1.1390909 1.0261531 1.5145705 1.6735867
1.122224 1.1889948 1.1495982 1.4995263 1.1128536 2.0827227 1.1332917 1.0458845
0.81028813 0.9866105 1.5754224 1.471763 1.82073 -0.109694935 -0.12634732 1.5568287
1.7624322 1.8340079 0.98478854 1.6816193 1.6087766 -0.12086034 1.1127706 0.83589774
0.8377799 0.92421186 1.2677243 1.3266989 -0.16680568 0.05691526 1.1912031 1.5041493
0.8252088 1.0836834 1.0995816 1.6280628 1.2523102 0.92982244 1.5929644 1.2719814
1.7722762 0.9591468 -0.119950265 1.3184596 1.2805774 1.1296718 1.4706305 -0.5917925
00000000: e520 6d3f 859a 713f f580 e73f 69e5 653f
00000010: 450b 943f acf1 ac3f 5955 303f ba89 78be
00000020: 9b21 8d3f 0272 e73f 7872 9c3f a17c c53f
00000030: 25a5 953f 9615 efbd 6a2e f03f 4672 7a3f
00000040: 030b fabd 0e16 733f 4224 8b3f e117 be3f
00000050: 8dcd 683f 8b4c 983f 45d9 d93f 7984 69be
00000060: 69c4 be3f 6278 623f 97bb a33f 9d7b cc3f
00000070: 9496 bf3f 4306 603f 5fdb b33f 3e3b c93f
00000080: b29b dc3f 7321 a83f c50a 873f 0cc1 72be
00000090: 092e b53f 07f3 e53f 0d9f 973f 1466 6fbe
000000a0: c664 8c3f 2669 ba3f 6185 903f 4a3a 843f
000000b0: f795 ae3f bf5f c13f 8f60 6f3f 7760 b43f
000000c0: 7f05 a93f 82bd f63f 760a 76be 67ad b23f
000000d0: 20aa 833f 66bb 7a3f 1436 d33f 2212 dc3f
000000e0: 6492 cd3f 06f5 8c3f 0e8e d53f e3cb fc3f
000000f0: 189b 50be 4902 d53f 2324 243f 9403 69be
00000100: f065 0bbe 0bbb cf3f 89dc cf3f a7d9 9d3f
00000110: c65b b73f b884 09be c455 7f3f 4af5 db3f
00000120: c367 9e3f 5ef9 d03f c99a ee3f f3ea ad3f
00000130: b80c 71be 680c d63f 8192 ac3f edab 803f
00000140: 2f31 423f c9c9 de3f d97f 403f 0cfa 873f
00000150: 4019 803f 75b3 9a3f 5559 7d3f 882c 543f
00000160: 897e 913f 7c2c 6d3f 0c3d 7abe 3419 55be
00000170: 3820 7f3f a5f1 2a3f f9ad 713f ca8a c33f
00000180: 4162 c33f 6814 783f 91c5 483f b366 633f
00000190: 90aa 6cbe 7256 6abe 30ee 843f 21fa 8d3f
000001a0: a897 7b3f 7a1b 95be dd06 ce3f a895 ff3f
000001b0: 8176 be3f a8e8 0240 4ed1 c73f 0418 8a3f
000001c0: 421f cb3f 2d9a ad3f a7e4 b53f be1e 7cbe
000001d0: 03a8 d23f ea5e 6c3f 206b 4b3f bc6d a43f
000001e0: ec67 e83f 68e0 e23f ef96 de3f 75a5 dc3f
000001f0: 0175 b93f 263d 783f 31e2 953f b289 71be
00000200: cd8b 7c3f be13 893f 322c 41be c0b3 b53f
00000210: 648b 933f 07a6 ec3f c999 863f e236 cf3f
00000220: 5442 c33f 54a3 cb3f 7225 a13f fb71 df3f
00000230: 3a8b af3f 6c7a fa3f 8ede 9b3f a82d 853f
00000240: 05ad 693f 13dc 833f c202 21be aa02 3d3e
00000250: b918 9d3f 4030 86bd 6e0b 713f 3e99 d23f
00000260: b566 b63f cd82 793f 890f a93f 0263 e63f
00000270: 4c5f 6c3f f0fc 4cbe 8698 ff3f 129d b23f
00000280: fad9 7a3f 388b cc3f 1731 c73f 4cc4 4bbe
00000290: 3fc2 06be 0dab 8d3f 8e0f f2bd ef59 873f
000002a0: 7e2b cc3f 581f 923f 5f44 b23f b8da ec3f
000002b0: 7751 b33f 800b 7d3f 7ebb 873f 1bc5 ff3f
000002c0: 817f 953f 37bd 6abe 1c07 923f 6406 9dbe
000002d0: 8dcd 593f 0359 673f 45e4 983f dbf2 933f
000002e0: 54c0 6b3f adc2 c43f c641 79be cd0d 8f3f
000002f0: 2c78 17be 6731 6ebe 4b08 db3f 6754 7a3f
00000300: 3e37 7b3f ecc0 523f 4626 fb3f 9e3e 633f
00000310: 4bfe 7d3f d3f4 ec3f 8b46 d63f a6a9 31be
00000320: 6c84 b23f 54ab 7f3f d766 8f3f 6b3c bf3f
00000330: bbcd 913f fc58 833f 72dd c13f 1738 d63f
00000340: 09a5 8f3f fb30 983f 0926 933f 7af0 bf3f
00000350: fd71 8e3f 544b 0540 b40f 913f 8bdf 853f
00000360: 0b6f 4f3f 8192 7c3f 71a7 c93f bb62 bc3f
00000370: ae0d e93f bda7 e0bd 3161 01be 2a46 c73f
00000380: 6197 e13f c5c0 ea3f 1a1b 7c3f 4d3f d73f
00000390: 64ec cd3f a085 f7bd 446f 8e3f 65fd 553f
000003a0: be78 563f 2699 6c3f ca44 a23f 45d1 a93f
000003b0: 1ccf 2abe fa1f 693d 5879 983f f787 c03f
000003c0: e240 533f 23b6 8a3f 17bf 8c3f 5d64 d03f
000003d0: b34b a03f d808 6e3f 42e6 cb3f 49d0 a23f
000003e0: f2d9 e23f a58a 753f 7ca8 f5bd 49c3 a83f
000003f0: f6e9 a33f 1699 903f 9f3d bc3f b77f 17bf

out.weight f4 [4, 256]
4.1427007 5.2024693 1.0132182 4.5564923 0.4967653 0.90515465 4.7806077 -0.008660652
4.4774203 0.96165264 4.6371245 0.9500728 0.50868076 0.0041414937 1.0523478 4.2764306
0.00420636 4.7410874 4.094454 0.7953673 4.5543194 4.525261 1.2545602 -0.07143392
1.255256 4.965971 0.4341074 1.5733659 0.93377364 4.9327207 1.1180918 1.2174544
1.0125691 3.976975 4.3677874 0.057656407 0.58163255 0.9682794 0.54192245 -0.027171925
4.5193834 0.9179933 4.799234 4.1563225 0.9196742 0.5272802 4.4529977 0.41970092
0.8011982 1.274814 -0.015590228 0.3965504 4.1730957 4.7289443 0.77452266 1.3142711
1.0705552 0.5795483 0.7486345 1.1187804 0.051019885 1.187477 2.2445648 0.03029153
0.004379928 0.87287414 1.3291284 0.96487707 0.53615755 0.046242006 4.903976 1.1792443
0.96203905 1.0639387 1.0225605 1.0374255 0.01712744 1.0717891 0.7416762 4.145611
3.818897 1.0594594 5.1064553 4.100973 4.445431 0.35065174 5.1034236 4.3331833
4.364656 4.7410183 -0.02441179 -0.03830818 4.448926 4.6652822 4.4986725 0.6698672
1.0160781 4.7999353 4.2135034 4.255485 -0.040430248 -0.03954958 4.7816577 3.8099475
4.348917 -0.0054563126 0.86235464 0.9894619 0.9651252 1.1630629 0.8045635 4.143372
0.78248274 0.7559845 1.0943621 -0.051973514 1.1470551 3.8589246 4.838809 1.1275411
1.0779445 1.1743221 0.8299957 2.5570168 0.656706 4.4312944 4.5646996 0.020133227
4.282575 4.5332136 -0.0073897466 0.76530004 4.566436 0.8644722 4.540715 1.1275951
0.8503887 0.62460375 0.75143695 0.90024257 5.2971997 1.0438045 4.90916 4.4067216
4.20497 4.631395 0.012870386 -0.7195216 0.49530655 0.02849409 4.7269497 1.2856822
0.5923945 4.150149 0.6731941 0.8871152 4.845323 0.01525395 1.3527174 0.7756429
4.8651443 0.86032 0.7226963 -0.0133966915 -0.027237536 0.49795654 -0.012484881 4.1522756
1.2944118 4.6538763 0.965235 1.1472477 0.69091624 4.5657744 4.116108 1.3914053
4.0108047 -1.3356216 4.5887966 -1.1200985 4.117586 4.69134 4.583612 2.3164048
4.6501207 0.8330737 0.016778074 5.578382 0.023769543 -0.013988405 0.93935275 4.9718375
4.3116884 5.131128 0.894066 2.975547 4.1754923 0.90315175 1.1109562 0.05645717
0.927825 5.026042 4.332638 1.1408265 4.4481444 3.936593 1.2241673 1.2661746
4.9596457 0.52989644 4.534304 1.0602251 3.6932452 1.4441593 4.5972433 4.4636264
4.382555 4.5111337 0.5341449 1.1430719 1.4072927 0.061100096 0.016292982 0.6975661
1.1514801 1.4125754 4.2382402 0.8146001 0.666413 0.04289244 4.3800945 5.113753
5.1227565 4.54424 0.7370612 0.77580076 -0.016981177 -0.094838984 0.7352557 0.6662976
4.5981917 4.4318357 4.3594193 0.8187302 4.5996766 4.8257027 1.3046149 0.9927811
0.862493 4.450529 -0.013731092 0.8005679 0.44090807 0.61160034 1.143704 -1.0831467
00000000: 0191 8440 a17a a640 22b1 813f c9ce 9140
00000010: 0558 fe3e 37b8 673f bdfa 9840 68e5 0dbc
00000020: 0747 8f40 de2e 763f 5363 9440 f937 733f
00000030: e738 023f 5eb5 873b 55b3 863f 85d8 8840
00000040: 81d5 893b fdb6 9740 c405 8340 319d 4b3f
00000050: fcbc 9140 f0ce 9040 6e95 a03f f24b 92bd
00000060: 3bac a03f 3ce9 9e40 5343 de3e 0e64 c93f
00000070: ca0b 6f3f d9d8 9d40 a21d 8f3f 8cd5 9b3f
00000080: dd9b 813f c286 7e40 eac4 8b40 2029 6c3d
00000090: dfe5 143f 29e1 773f 6ebb 0a3f a897 debc
000000a0: ca9e 9040 9c01 6b3f 5393 9940 9800 8540
000000b0: c56f 6b3f d6fb 063f f57e 8e40 0ae3 d63e
000000c0: 531b 4d3f 1b2d a33f 286e 7fbc a708 cb3e
000000d0: 008a 8540 8353 9740 1e47 463f 093a a83f
000000e0: f407 893f 475d 143f 83a6 3f3f 3234 8f3f
000000f0: 3afa 503d 3fff 973f f3a6 0f40 f125 f83c
00000100: 8085 8f3b ae74 5f3f e120 aa3f 2f02 773f
00000110: 9f41 093f 4268 3d3d 5fed 9c40 7af1 963f
00000120: 3148 763f 252f 883f 43e3 823f 5cca 843f
00000130: d84e 8c3c 6330 893f 7ede 3d3f d8a8 8440
00000140: cf68 7440 5e9c 873f 1568 a340 2c3b 8340
00000150: f940 8e40 a088 b33e 3f4f a340 70a9 8a40
00000160: 43ab 8b40 6cb6 9740 3cfb c7bc 0ae9 1cbd
00000170: 9a5d 8e40 fe49 9540 20f5 8f40 6b7c 2b3f
00000180: d90e 823f 1299 9940 05d5 8640 ef2c 8840
00000190: 309a 25bd befe 21bd 5703 9940 2ed6 7340
000001a0: 542a 8b40 deca b2bb 46c3 5c3f 604d 7d3f
000001b0: 7212 773f 3fdf 943f e0f7 4d3f 8196 8440
000001c0: ca50 483f 3388 413f 0f14 8c3f 2ee2 54bd
000001d0: b4d2 923f 9ff8 7640 86d7 9a40 4453 903f
000001e0: 16fa 893f 3050 963f 997a 543f 2aa6 2340
000001f0: e21d 283f 2acd 8d40 0512 9240 70ee a43c
00000200: db0a 8940 1610 9140 b025 f2bb b4ea 433f
00000210: 3e20 9240 0d4e 5d3f 8a4d 9140 0955 903f
00000220: 13b3 593f 08e6 1f3f 2c5e 403f 4c76 663f
00000230: a982 a940 639b 853f d717 9d40 dd03 8d40
00000240: 1d8f 8640 6334 9440 50de 523c 9132 38bf
00000250: d298 fd3e 706c e93c 2c43 9740 3c91 a43f
00000260: 2aa7 173f 05ce 8440 7356 2c3f fb19 633f
00000270: e30c 9b40 b4eb 793c d825 ad3f 8890 463f
00000280: 43af 9b40 ee3d 5c3f a002 393f cc7d 5bbc
00000290: 4121 dfbc 29f4 fe3e 638d 4cbc 71df 8440
000002a0: 49af a53f 8eec 9440 a419 773f 03d9 923f
000002b0: e3df 303f d31a 9240 28b7 8340 9219 b23f
000002c0: 8358 8040 a6f5 aabf 6cd7 9240 635f 8fbf
000002d0: 44c3 8340 751f 9640 f3ac 9240 fa3f 1440
000002e0: cacd 9440 5144 553f 2c72 893c 1b82 b240
000002f0: 58b8 c23c 9f2f 65bc 6c79 703f 4b19 9f40
00000300: 5af9 8940 3332 a440 82e1 643f 5d6f 3e40
00000310: a29d 8540 f434 673f d033 8e3f a23f 673d
00000320: f085 6d3f 56d5 a040 f8a4 8a40 9a06 923f
00000330: 3357 8e40 24f1 7b40 84b1 9c3f 0212 a23f
00000340: 6bb5 9e40 4ba7 073f 0519 9140 75b5 873f
00000350: 215e 6c40 36da b83f 9e1c 9340 07d6 8e40
00000360: e43d 8c40 355b 9040 b8bd 083f 2e50 923f
00000370: 2b22 b43f 1844 7a3d dc78 853c b193 323f
00000380: b363 933f 45cf b43f aa9f 8740 a289 503f
00000390: 0b9a 2a3f fcaf 2f3d bc29 8c40 dda3 a340
000003a0: 9fed a340 6a6a 9140 0bb0 3c3f e19a 463f
000003b0: 1c1c 8bbc f13a c2bd b839 3c3f 7b92 2a3f
000003c0: 6324 9340 99d1 8d40 5d80 8b40 4d98 513f
000003d0: 8d30 9340 286c 9a40 9ffd a63f e726 7e3f
000003e0: 57cc 5c3f bc6a 8e40 60f8 60bc 05f2 4c3f
000003f0: b4be e13e d791 1c3f e564 923f 8da4 8abf

out.bias f4 [4]
1.0486214 1.1524198 0.079834916 1.5307435
00000000: 3a39 863f 7e82 933f 7d80 a33d 67ef c33f

fc1.weight f4 [256, 16]
2.1452458 0.065560214 -0.23960508 -0.68501616 -0.80004305 -2.0990193 -1.1601617 -1.6056687
-3.3759885 -5.5092006 -6.73592 -8.52721 -8.003113 -4.9136667 -4.505446 -4.5388756
2.0760396 0.07618285 0.38218608 -0.12445965 -0.7409988 -1.3648543 -0.20201853 -0.44689777
-3.0613153 -2.9160042 -6.57413 -6.8657966 -10.024283 -6.449013 -5.8926816 -5.9690833
0.00627589 0.24057312 -0.072507076 0.47338593 -0.3670882 -0.4160908 -0.3575783 -0.32039034
-0.17007485 -0.3172639 -0.21309868 -0.77694905 -0.54770166 -0.06021999 0.23843108 0.9949411
1.3621007 -0.29490313 0.22152837 0.076010406 -0.90004206 -0.85859287 0.1149102 -0.0003660027
-1.8681446 -0.897528 -3.8075986 -3.9282207 -9.529381 -5.315661 -4.5109572 -4.811647
0.9264587 0.8360425 -0.11728104 0.70679593 0.7603409 -0.1641481 -0.1195606 -0.3090037
1.146024 -0.14932567 0.16297439 -1.1942906 -2.1143003 0.2688695 -0.28352645 1.1143819
0.1619228 0.5890582 -0.09788476 0.7728469 0.26161397 -0.502944 -0.07736928 -0.53968257
0.4158427 -0.06241888 0.014222127 -0.5629329 -1.4274653 0.17707223 -0.080332965 1.1337364
1.8161461 0.18934551 0.39549574 0.047166485 -0.6439516 -0.8963399 0.21582691 -0.1124044
-2.2003224 -1.5546559 -5.0361967 -6.51857 -9.668417 -5.977872 -4.9994254 -5.4791126
0.03816974 0.16448519 -0.21109384 -0.12231082 -0.024763286 -0.06390706 0.12034419 -0.14598301
-0.20690578 0.09799257 -0.00954172 -0.06617108 -0.10510999 -0.20699051 -0.21169937 0.14175001
2.0630164 -0.05050521 -0.30095527 -0.74187815 -1.0259414 -2.461551 -1.2004285 -1.6902326
-3.8592322 -5.8141475 -7.4388375 -8.501594 -7.98053 -5.2340155 -4.803329 -4.8860407
0.00019673901 0.24450076 -0.30215767 0.05215192 -0.42152092 -0.4702771 -0.19923261 -0.5628757
0.19948424 -0.32921353 -0.17167939 -0.67980444 -0.44995064 0.046032313 0.43245104 1.1211269
1.9136347 -0.34164453 -0.15256599 -0.5083639 -1.0745275 -2.5223334 -1.2257113 -1.5615542
-3.8577526 -5.616781 -7.2639914 -8.934829 -8.176377 -5.532724 -4.9227386 -4.7538886
-0.15474527 0.270318 -0.050377805 0.6095215 0.117340945 -0.58948225 -0.16013008 -0.54206
0.3480397 -0.104106985 -0.2907713 -0.64378965 -0.77500564 0.22487247 0.26847664 1.0525328
1.0834113 1.0771416 -0.29226446 0.3065798 0.5853302 -0.17359908 -0.0639989 -0.5342347
0.717844 0.009300759 0.12962465 -1.005384 -1.7901483 0.5999489 -0.2732036 1.1587511
-0.2362317 -0.06575305 -0.15860681 -0.21751276 0.044419438 -0.11671142 -0.10746022 -0.24958606
-0.22437732 0.15545648 0.21923749 0.04220035 -0.14340858 0.05154617 -0.16110004 0.052049655
-0.18067488 0.25721174 -0.14279854 0.38380468 -0.5348139 -0.47373012 -0.113346584 -0.4057803
0.17268461 -0.4143403 -0.3696529 -0.6843741 -0.29011196 0.18781854 0.52605027 0.86353046
2.3108695 -0.093438976 -0.21936607 -0.78161174 -0.80847496 -2.3500466 -1.2486396 -1.6406034
-3.3808277 -5.5556912 -7.159446 -9.174711 -8.289308 -5.1585793 -4.598206 -4.876546
00000000: b54b 0940 6f44 863d 095b 75be 385d 2fbf
00000010: 9fcf 4cbf 5556 06c0 2e80 94bf 8d86 cdbf
00000020: 3210 58c0 5f4b b0c0 a88c d7c0 746f 08c1
00000030: c00c 00c1 c23c 9dc0 9d2c 90c0 783e 91c0
00000040: d5dd 0440 c105 9c3d e5ad c33e b3e4 febd
00000050: 19b2 3dbf 8cb3 aebf f2dd 4ebe c9cf e4be
00000060: 97ec 43c0 d09f 3ac0 465f d2c0 9bb4 dbc0
00000070: 7763 20c1 515e cec0 d990 bcc0 bb02 bfc0
00000080: fba5 cd3b cd58 763e 977e 94bd a45f f23e
00000090: fcf2 bbbe da09 d5be 8114 b7be 340a a4be
000000a0: 1a28 2ebe 6a70 a2be 8a36 5abe 22e6 46bf
000000b0: 2d36 0cbf 3ca9 76bd 4727 743e 76b4 7e3f
000000c0: 5159 ae3f 8bfd 96be 55d8 623e 58ab 9b3d
000000d0: 2869 66bf becc 5bbf 0a56 eb3d 0de4 bfb9
000000e0: 5d1f efbf 65c4 65bf b2af 73c0 f867 7bc0
000000f0: 5878 18c1 e519 aac0 c359 90c0 03f9 99c0
00000100: 662c 6d3f e206 563f 0b31 f0bd 94f0 343f
00000110: b4a5 423f 7116 28be 30dc f4bd bc35 9ebe
00000120: eab0 923f d4e8 18be c2e2 263e 84de 98bf
00000130: b250 07c0 43a9 893e 612a 91be 11a4 8e3f
00000140: 17cf 253e 85cc 163f ce77 c8bd 4bd9 453f
00000150: 44f2 853e f0c0 00bf c973 9ebd a328 0abf
00000160: 56e9 d43e f1aa 7fbd ed03 693c 5f1c 10bf
00000170: 2fb7 b6bf 6c52 353e 9c85 a4bd 461e 913f
00000180: 7a77 e83f cae3 413e 6b7e ca3e a531 413d
00000190: 03da 24bf 8876 65bf bb01 5d3e 4734 e6bd
000001a0: 15d2 0cc0 f7fe c6bf 8628 a1c0 2098 d0c0
000001b0: d6b1 1ac1 ba4a bfc0 4bfb 9fc0 e454 afc0
000001c0: e057 1c3d ce6e 283e fc28 58be 187e fabd
000001d0: 60dc cabc b4e1 82bd 0477 f63d 927c 15be
000001e0: 1cdf 53be 54b0 c83d e054 1cbc b484 87bd
000001f0: e843 d7bd 52f5 53be b8c7 58be ea26 113e
00000200: 7608 0440 8dde 4ebd cf16 9abe baeb 3dbf
00000210: 0c52 83bf 0d8a 1dc0 a4a7 99bf 8b59 d8bf
00000220: a9fd 76c0 7f0d bac0 f50a eec0 8706 08c1
00000230: 8060 ffc0 0e7d a7c0 dfb4 99c0 725a 9cc0
00000240: ba4b 4e39 685e 7a3e 69b4 9abe 409d 553d
00000250: 97d1 d7be 29c8 f0be a203 4cbe 9f18 10bf
00000260: 9945 4c3e ad8e a8be b9cc 2fbe aa07 2ebf
00000270: ee5f e6be 618c 3c3d 396a dd3e 1681 8f3f
00000280: fbf1 f43f 08ec aebe 423a 1cbe 2324 02bf
00000290: 1e8a 89bf e96d 21c0 1ce4 9cbf 02e1 c7bf
000002a0: 6be5 76c0 acbc b3c0 9e72 e8c0 0ff5 0ec1
000002b0: 71d2 02c1 130c b1c0 1387 9dc0 db1f 98c0
000002c0: 8b75 1ebe 1f67 8a3e f558 4ebd 9a09 1c3f
000002d0: 7350 f03d 4fe8 16bf 24f9 23be 72c4 0abf
000002e0: 4232 b23e 0b36 d5bd fadf 94be 66cf 24bf
000002f0: c566 46bf f844 663e c575 893e 65b9 863f
00000300: 39ad 8a3f c7df 893f b0a3 95be 07f8 9c3e
00000310: 33d8 153f f5c3 31be db11 83bd 9bc3 08bf
00000320: a0c4 373f 3662 183c 53bc 043e 6cb0 80bf
00000330: 9423 e5bf 4096 193f 58e1 8bbe f551 943f
00000340: b9e6 71be 89a9 86bd d369 22be aabb 5ebe
00000350: 28f1 353d 6606 efbd 1b14 dcbd 7d93 7fbe
00000360: 2bc3 65be fc2f 1f3e cb7f 603e 46da 2c3d
00000370: b3d9 12be 1422 533d 69f7 24be 0532 553d
00000380: d602 39be 42b1 833e c839 12be 0c82 c43e
00000390: 90e9 08bf c18c f2be 4122 e8bd 6fc2 cfbe
000003a0: 3cd4 303e 6924 d4be 2543 bdbe 2433 2fbf
000003b0: 8e89 94be 8153 403e 3bab 063f 5510 5d3f
000003c0: 49e5 1340 ef5c bfbd 80a1 60be b517 48bf
000003d0: 37f8 4ebf 2a67 16c0 6cd3 9fbf 4bff d1bf
000003e0: 7b5f 58c0 39c8 b1c0 2e1a e5c0 9ecb 12c1
000003f0: 01a1 04c1 1513 a5c0 8124 93c0 aa0c 9cc0

fc1.bias f4 [256]
0.9262832 0.94376403 1.808623 0.8980318 1.1565939 1.3511252 0.6888023 -0.24271289
1.102588 1.8081667 1.2222433 1.5428659 1.1691023 -0.11674039 1.8764164 0.9783062
-0.122091316 0.9495553 1.087044 1.4851037 0.90938646 1.1898359 1.701943 -0.2280444
1.490369 0.8846494 1.2791623 1.5975224 1.4967828 0.87509555 1.4051322 1.5721204
1.7235014 1.3135208 1.0550162 -0.23706454 1.4154674 1.7964791 1.1845413 -0.23378783
1.0968254 1.4563339 1.1290704 1.0330288 1.3639516 1.5107344 0.9350671 1.4091939
1.3204802 1.9276583 -0.24027428 1.3959168 1.0286293 0.979422 1.6500878 1.7193034
1.60603 1.1012275 1.6683977 1.9749721 -0.20371664 1.6641322 0.6411764 -0.22755271
-0.13613105 1.6228956 1.6239177 1.2332047 1.4324882 -0.13429534 0.9974024 1.7184231
1.2375416 1.6326101 1.8640987 1.3587326 -0.23540008 1.6722536 1.348221 1.0052468
0.758563 1.740533 0.7519508 1.0623183 1.0007706 1.2086016 0.98964435 0.8288045
1.136674 0.92646 -0.2443735 -0.20810395 0.99658537 0.6677497 0.94406086 1.527673
1.526436 0.9690614 0.7842646 0.8882858 -0.2311194 -0.22884539 1.0385189 1.1091958
0.98278284 -0.29122525 1.6095845 1.9967546 1.4879915 2.0454502 1.561075 1.0788579
1.5868914 1.3562676 1.4210404 -0.24621102 1.6457523 0.9233233 0.79460335 1.2845988
1.8156714 1.7724733 1.7389811 1.7237993 1.4488832 0.96968305 1.1709653 -0.23587683
0.9865082 1.070915 -0.18864515 1.419548 1.1526914 1.8488168 1.0515682 1.6188624
1.5254617 1.5909219 1.2589552 1.7456659 1.3714364 1.956861 1.2177293 1.0404558
0.9127963 1.0301536 -0.15723708 0.18458048 1.227317 -0.06552172 0.94158065 1.6453016
1.4250094 0.9746521 1.3207866 1.7998965 0.9233291 -0.20018363 1.9968421 1.3954184
0.97988856 1.5979986 1.5561856 -0.198991 -0.13160037 1.1067826 -0.11819373 1.057432
1.5950773 1.1415815 1.3927115 1.8504248 1.4009236 0.9884567 1.0604093 1.9982027
1.1679536 -0.22923742 1.140842 -0.30668938 0.8507927 0.90370196 1.1944662 1.1558489
0.92090344 1.537191 -0.24341497 1.1176087 -0.14791936 -0.23261033 1.7111906 0.9778504
0.9813117 0.82325625 1.9621055 0.8876742 0.99216145 1.8512214 1.6740278 -0.17349872
1.3946662 0.998708 1.1203259 1.4940313 1.1390909 1.0261531 1.5145705 1.6735867
1.122224 1.1889948 1.1495982 1.4995263 1.1128536 2.0827227 1.1332917 1.0458845
0.81028813 0.9866105 1.5754224 1.471763 1.82073 -0.109694935 -0.12634732 1.5568287
1.7624322 1.8340079 0.98478854 1.6816193 1.6087766 -0.12086034 1.1127706 0.83589774
0.8377799 0.92421186 1.2677243 1.3266989 -0.16680568 0.05691526 1.1912031 1.5041493
0.8252088 1.0836834 1.0995816 1.6280628 1.2523102 0.92982244 1.5929644 1.2719814
1.7722762 0.9591468 -0.119950265 1.3184596 1.2805774 1.1296718 1.4706305 -0.5917925
00000000: e520 6d3f 859a 713f f580 e73f 69e5 653f
00000010: 450b 943f acf1 ac3f 5955 303f ba89 78be
00000020: 9b21 8d3f 0272 e73f 7872 9c3f a17c c53f
00000030: 25a5 953f 9615 efbd 6a2e f03f 4672 7a3f
00000040: 030b fabd 0e16 733f 4224 8b3f e117 be3f
00000050: 8dcd 683f 8b4c 983f 45d9 d93f 7984 69be
00000060: 69c4 be3f 6278 623f 97bb a33f 9d7b cc3f
00000070: 9496 bf3f 4306 603f 5fdb b33f 3e3b c93f
00000080: b29b dc3f 7321 a83f c50a 873f 0cc1 72be
00000090: 092e b53f 07f3 e53f 0d9f 973f 1466 6fbe
000000a0: c664 8c3f 2669 ba3f 6185 903f 4a3a 843f
000000b0: f795 ae3f bf5f c13f 8f60 6f3f 7760 b43f
000000c0: 7f05 a93f 82bd f63f 760a 76be 67ad b23f
000000d0: 20aa 833f 66bb 7a3f 1436 d33f 2212 dc3f
000000e0: 6492 cd3f 06f5 8c3f 0e8e d53f e3cb fc3f
000000f0: 189b 50be 4902 d53f 2324 243f 9403 69be
00000100: f065 0bbe 0bbb cf3f 89dc cf3f a7d9 9d3f
00000110: c65b b73f b884 09be c455 7f3f 4af5 db3f
00000120: c367 9e3f 5ef9 d03f c99a ee3f f3ea ad3f
00000130: b80c 71be 680c d63f 8192 ac3f edab 803f
00000140: 2f31 423f c9c9 de3f d97f 403f 0cfa 873f
00000150: 4019 803f 75b3 9a3f 5559 7d3f 882c 543f
00000160: 897e 913f 7c2c 6d3f 0c3d 7abe 3419 55be
00000170: 3820 7f3f a5f1 2a3f f9ad 713f ca8a c33f
00000180: 4162 c33f 6814 783f 91c5 483f b366 633f
00000190: 90aa 6cbe 7256 6abe 30ee 843f 21fa 8d3f
000001a0: a897 7b3f 7a1b 95be dd06 ce3f a895 ff3f
000001b0: 8176 be3f a8e8 0240 4ed1 c73f 0418 8a3f
000001c0: 421f cb3f 2d9a ad3f a7e4 b53f be1e 7cbe
000001d0: 03a8 d23f ea5e 6c3f 206b 4b3f bc6d a43f
000001e0: ec67 e83f 68e0 e23f ef96 de3f 75a5 dc3f
000001f0: 0175 b93f 263d 783f 31e2 953f b289 71be
00000200: cd8b 7c3f be13 893f 322c 41be c0b3 b53f
00000210: 648b 933f 07a6 ec3f c999 863f e236 cf3f
00000220: 5442 c33f 54a3 cb3f 7225 a13f fb71 df3f
00000230: 3a8b af3f 6c7a fa3f 8ede 9b3f a82d 853f
00000240: 05ad 693f 13dc 833f c202 21be aa02 3d3e
00000250: b918 9d3f 4030 86bd 6e0b 713f 3e99 d23f
00000260: b566 b63f cd82 793f 890f a93f 0263 e63f
00000270: 4c5f 6c3f f0fc 4cbe 8698 ff3f 129d b23f
00000280: fad9 7a3f 388b cc3f 1731 c73f 4cc4 4bbe
00000290: 3fc2 06be 0dab 8d3f 8e0f f2bd ef59 873f
000002a0: 7e2b cc3f 581f 923f 5f44 b23f b8da ec3f
000002b0: 7751 b33f 800b 7d3f 7ebb 873f 1bc5 ff3f
000002c0: 817f 953f 37bd 6abe 1c07 923f 6406 9dbe
000002d0: 8dcd 593f 0359 673f 45e4 983f dbf2 933f
000002e0: 54c0 6b3f adc2 c43f c641 79be cd0d 8f3f
000002f0: 2c78 17be 6731 6ebe 4b08 db3f 6754 7a3f
00000300: 3e37 7b3f ecc0 523f 4626 fb3f 9e3e 633f
00000310: 4bfe 7d3f d3f4 ec3f 8b46 d63f a6a9 31be
00000320: 6c84 b23f 54ab 7f3f d766 8f3f 6b3c bf3f
00000330: bbcd 913f fc58 833f 72dd c13f 1738 d63f
00000340: 09a5 8f3f fb30 983f 0926 933f 7af0 bf3f
00000350: fd71 8e3f 544b 0540 b40f 913f 8bdf 853f
00000360: 0b6f 4f3f 8192 7c3f 71a7 c93f bb62 bc3f
00000370: ae0d e93f bda7 e0bd 3161 01be 2a46 c73f
00000380: 6197 e13f c5c0 ea3f 1a1b 7c3f 4d3f d73f
00000390: 64ec cd3f a085 f7bd 446f 8e3f 65fd 553f
000003a0: be78 563f 2699 6c3f ca44 a23f 45d1 a93f
000003b0: 1ccf 2abe fa1f 693d 5879 983f f787 c03f
000003c0: e240 533f 23b6 8a3f 17bf 8c3f 5d64 d03f
000003d0: b34b a03f d808 6e3f 42e6 cb3f 49d0 a23f
000003e0: f2d9 e23f a58a 753f 7ca8 f5bd 49c3 a83f
000003f0: f6e9 a33f 1699 903f 9f3d bc3f b77f 17bf

out.weight f4 [4, 256]
4.1427007 5.2024693 1.0132182 4.5564923 0.4967653 0.90515465 4.7806077 -0.008660652
4.4774203 0.96165264 4.6371245 0.9500728 0.50868076 0.0041414937 1.0523478 4.2764306
0.00420636 4.7410874 4.094454 0.7953673 4.5543194 4.525261 1.2545602 -0.07143392
1.255256 4.965971 0.4341074 1.5733659 0.93377364 4.9327207 1.1180918 1.2174544
1.0125691 3.976975 4.3677874 0.057656407 0.58163255 0.9682794 0.54192245 -0.027171925
4.5193834 0.9179933 4.799234 4.1563225 0.9196742 0.5272802 4.4529977 0.41970092
0.8011982 1.274814 -0.015590228 0.3965504 4.1730957 4.7289443 0.77452266 1.3142711
1.0705552 0.5795483 0.7486345 1.1187804 0.051019885 1.187477 2.2445648 0.03029153
0.004379928 0.87287414 1.3291284 0.96487707 0.53615755 0.046242006 4.903976 1.1792443
0.96203905 1.0639387 1.0225605 1.0374255 0.01712744 1.0717891 0.7416762 4.145611
3.818897 1.0594594 5.1064553 4.100973 4.445431 0.35065174 5.1034236 4.3331833
4.364656 4.7410183 -0.02441179 -0.03830818 4.448926 4.6652822 4.4986725 0.6698672
1.0160781 4.7999353 4.2135034 4.255485 -0.040430248 -0.03954958 4.7816577 3.8099475
4.348917 -0.0054563126 0.86235464 0.9894619 0.9651252 1.1630629 0.8045635 4.143372
0.78248274 0.7559845 1.0943621 -0.051973514 1.1470551 3.8589246 4.838809 1.1275411
1.0779445 1.1743221 0.8299957 2.5570168 0.656706 4.4312944 4.5646996 0.020133227
4.282575 4.5332136 -0.0073897466 0.76530004 4.566436 0.8644722 4.540715 1.1275951
0.8503887 0.62460375 0.75143695 0.90024257 5.2971997 1.0438045 4.90916 4.4067216
4.20497 4.631395 0.012870386 -0.7195216 0.49530655 0.02849409 4.7269497 1.2856822
0.5923945 4.150149 0.6731941 0.8871152 4.845323 0.01525395 1.3527174 0.7756429
4.8651443 0.86032 0.7226963 -0.0133966915 -0.027237536 0.49795654 -0.012484881 4.1522756
1.2944118 4.6538763 0.965235 1.1472477 0.69091624 4.5657744 4.116108 1.3914053
4.0108047 -1.3356216 4.5887966 -1.1200985 4.117586 4.69134 4.583612 2.3164048
4.6501207 0.8330737 0.016778074 5.578382 0.023769543 -0.013988405 0.93935275 4.9718375
4.3116884 5.131128 0.894066 2.975547 4.1754923 0.90315175 1.1109562 0.05645717
0.927825 5.026042 4.332638 1.1408265 4.4481444 3.936593 1.2241673 1.2661746
4.9596457 0.52989644 4.534304 1.0602251 3.6932452 1.4441593 4.5972433 4.4636264
4.382555 4.5111337 0.5341449 1.1430719 1.4072927 0.061100096 0.016292982 0.6975661
1.1514801 1.4125754 4.2382402 0.8146001 0.666413 0.04289244 4.3800945 5.113753
5.1227565 4.54424 0.7370612 0.77580076 -0.016981177 -0.094838984 0.7352557 0.6662976
4.5981917 4.4318357 4.3594193 0.8187302 4.5996766 4.8257027 1.3046149 0.9927811
0.862493 4.450529 -0.013731092 0.8005679 0.44090807 0.61160034 1.143704 -1.0831467
00000000: 0191 8440 a17a a640 22b1 813f c9ce 9140
00000010: 0558 fe3e 37b8 673f bdfa 9840 68e5 0dbc
00000020: 0747 8f40 de2e 763f 5363 9440 f937 733f
00000030: e738 023f 5eb5 873b 55b3 863f 85d8 8840
00000040: 81d5 893b fdb6 9740 c405 8340 319d 4b3f
00000050: fcbc 9140 f0ce 9040 6e95 a03f f24b 92bd
00000060: 3bac a03f 3ce9 9e40 5343 de3e 0e64 c93f
00000070: ca0b 6f3f d9d8 9d40 a21d 8f3f 8cd5 9b3f
00000080: dd9b 813f c286 7e40 eac4 8b40 2029 6c3d
00000090: dfe5 143f 29e1 773f 6ebb 0a3f a897 debc
000000a0: ca9e 9040 9c01 6b3f 5393 9940 9800 8540
000000b0: c56f 6b3f d6fb 063f f57e 8e40 0ae3 d63e
000000c0: 531b 4d3f 1b2d a33f 286e 7fbc a708 cb3e
000000d0: 008a 8540 8353 9740 1e47 463f 093a a83f
000000e0: f407 893f 475d 143f 83a6 3f3f 3234 8f3f
000000f0: 3afa 503d 3fff 973f f3a6 0f40 f125 f83c
00000100: 8085 8f3b ae74 5f3f e120 aa3f 2f02 773f
00000110: 9f41 093f 4268 3d3d 5fed 9c40 7af1 963f
00000120: 3148 763f 252f 883f 43e3 823f 5cca 843f
00000130: d84e 8c3c 6330 893f 7ede 3d3f d8a8 8440
00000140: cf68 7440 5e9c 873f 1568 a340 2c3b 8340
00000150: f940 8e40 a088 b33e 3f4f a340 70a9 8a40
00000160: 43ab 8b40 6cb6 9740 3cfb c7bc 0ae9 1cbd
00000170: 9a5d 8e40 fe49 9540 20f5 8f40 6b7c 2b3f
00000180: d90e 823f 1299 9940 05d5 8640 ef2c 8840
00000190: 309a 25bd befe 21bd 5703 9940 2ed6 7340
000001a0: 542a 8b40 deca b2bb 46c3 5c3f 604d 7d3f
000001b0: 7212 773f 3fdf 943f e0f7 4d3f 8196 8440
000001c0: ca50 483f 3388 413f 0f14 8c3f 2ee2 54bd
000001d0: b4d2 923f 9ff8 7640 86d7 9a40 4453 903f
000001e0: 16fa 893f 3050 963f 997a 543f 2aa6 2340
000001f0: e21d 283f 2acd 8d40 0512 9240 70ee a43c
00000200: db0a 8940 1610 9140 b025 f2bb b4ea 433f
00000210: 3e20 9240 0d4e 5d3f 8a4d 9140 0955 903f
00000220: 13b3 593f 08e6 1f3f 2c5e 403f 4c76 663f
00000230: a982 a940 639b 853f d717 9d40 dd03 8d40
00000240: 1d8f 8640 6334 9440 50de 523c 9132 38bf
00000250: d298 fd3e 706c e93c 2c43 9740 3c91 a43f
00000260: 2aa7 173f 05ce 8440 7356 2c3f fb19 633f
00000270: e30c 9b40 b4eb 793c d825 ad3f 8890 463f
00000280: 43af 9b40 ee3d 5c3f a002 393f cc7d 5bbc
00000290: 4121 dfbc 29f4 fe3e 638d 4cbc 71df 8440
000002a0: 49af a53f 8eec 9440 a419 773f 03d9 923f
000002b0: e3df 303f d31a 9240 28b7 8340 9219 b23f
000002c0: 8358 8040 a6f5 aabf 6cd7 9240 635f 8fbf
000002d0: 44c3 8340 751f 9640 f3ac 9240 fa3f 1440
000002e0: cacd 9440 5144 553f 2c72 893c 1b82 b240
000002f0: 58b8 c23c 9f2f 65bc 6c79 703f 4b19 9f40
00000300: 5af9 8940 3332 a440 82e1 643f 5d6f 3e40
00000310: a29d 8540 f434 673f d033 8e3f a23f 673d
00000320: f085 6d3f 56d5 a040 f8a4 8a40 9a06 923f
00000330: 3357 8e40 24f1 7b40 84b1 9c3f 0212 a23f
00000340: 6bb5 9e40 4ba7 073f 0519 9140 75b5 873f
00000350: 215e 6c40 36da b83f 9e1c 9340 07d6 8e40
00000360: e43d 8c40 355b 9040 b8bd 083f 2e50 923f
00000370: 2b22 b43f 1844 7a3d dc78 853c b193 323f
00000380: b363 933f 45cf b43f aa9f 8740 a289 503f
00000390: 0b9a 2a3f fcaf 2f3d bc29 8c40 dda3 a340
000003a0: 9fed a340 6a6a 9140 0bb0 3c3f e19a 463f
000003b0: 1c1c 8bbc f13a c2bd b839 3c3f 7b92 2a3f
000003c0: 6324 9340 99d1 8d40 5d80 8b40 4d98 513f
000003d0: 8d30 9340 286c 9a40 9ffd a63f e726 7e3f
000003e0: 57cc 5c3f bc6a 8e40 60f8 60bc 05f2 4c3f
000003f0: b4be e13e d791 1c3f e564 923f 8da4 8abf

out.bias f4 [4]
1.0486214 1.1524198 0.079834916 1.5307435
00000000: 3a39 863f 7e82 933f 7d80 a33d 67ef c33f

exp_avg f4 [256, 16]
0.0003858074 0.0013212626 0.00196536 0.000158519 0.001769681 0.00057076965 0.0006881247 8.607599e-05
0.0004717023 0.00047907265 -5.6423938e-05 0.00045580175 0.00010693888 -0.00010458241 -0.0002853267 0.00022440181
-0.001739483 -0.0011567873 -0.00021491102 -0.0013891459 -0.00012846055 -0.0019001963 8.377805e-05 0.00032098196
0.00026976722 -0.00065329694 -0.0003943781 0.00055459625 0.00035692993 -0.0007147863 -0.000215606 0.00027829292
-0.0010839488 -0.00075803534 -0.0024212077 -0.0009638138 -0.0009653579 -0.0013349602 0.00125773 -7.319335e-05
1.2352609e-05 -0.00062359904 0.0004120025 2.229741e-05 6.6554026e-07 0.00020790828 0.00014437485 0.0006108068
-0.003881786 -0.003129327 -0.0031254373 -0.0027891546 -0.0016012959 -0.0033509529 -0.0022904282 -0.0009268959
-0.0008941044 -0.0010978357 -0.00083224516 -2.3502587e-05 0.00011946165 -0.00050387834 -0.00043711602 0.00015663519
0.000112726266 0.0014816085 -0.0017108073 0.0018853651 -0.0008680184 -0.000534508 0.0035053524 0.0015786525
-0.00053879607 -0.00093848276 0.0007716283 0.0009315876 -0.00030834257 -0.00029989434 -0.00035826684 0.0009754508
-0.0005595216 0.00033217514 -0.0019718271 0.0004719374 -0.0009794226 -0.00094352476 0.0023701754 0.00087431667
-0.0002864713 -0.0007833754 0.0005992962 0.000530557 -0.00018091037 -4.3957803e-05 -8.5335945e-05 0.0008138083
-0.0044134334 -0.0029692044 -0.0020156594 -0.0023384916 -0.0012791537 -0.0035193465 -0.0025861769 -5.5414712e-05
-0.0013499411 -0.0008296184 -0.0011409088 0.00046104935 0.00025460703 -0.00060017436 -0.00053292257 0.00024497436
0.0 0.0 0.0 0.0 0.0 0.0 0.0 0.0
0.0 0.0 0.0 0.0 0.0 0.0 0.0 0.0
0.00043574316 0.0013870294 0.002066227 0.00015996455 0.001889569 0.00061546476 0.0007221691 0.00011350993
0.0005104131 0.0005048231 -6.282028e-05 0.0004893662 0.000110535664 -0.0001111754 -0.0003006508 0.00023529804
-0.0011523868 -0.0008983791 -0.0027663936 -0.0011873122 -0.0009636054 -0.0014633784 0.0013303783 -0.00026854227
8.166452e-05 -0.0006454434 0.00045599602 -6.6755165e-05 5.1216808e-05 0.00025419725 0.00016766984 0.0006506057
4.9981412e-05 0.00026210668 0.0006768034 -0.0003882999 0.001730543 0.00018532321 0.00037350887 0.00013231277
0.00058049476 0.0005045662 1.04509545e-05 0.00048069493 0.000118345764 -0.0005887449 -0.00018584728 0.00022724249
-0.00086486136 -0.00027714102 -0.0023572976 -0.0003628592 -0.0010292839 -0.0012382 0.0017224426 0.00027228057
-0.00014605498 -0.0007491695 0.00045232772 0.00021748539 -8.394829e-05 8.922466e-05 1.8441468e-05 0.0006737539
4.3453772e-07 0.0012094537 -0.0018023114 0.0015614424 -0.0007541137 -0.00054979586 0.0034752658 0.001434023
-0.0003857081 -0.0008263953 0.0008720754 0.00084754464 -0.00023218933 -0.00020951896 -0.0002555423 0.0010395077
6e-45 6e-45 6e-45 6e-45 6e-45 6e-45 6e-45 6e-45
6e-45 6e-45 6e-45 6e-45 6e-45 6e-45 6e-45 6e-45
-0.0011957827 -0.00097391155 -0.0025101055 -0.0012402708 -0.0009644811 -0.0014111436 0.0010716377 -0.00023608908
7.427966e-05 -0.00059027446 0.00039175406 -6.6236156e-05 3.561072e-05 0.00026003373 0.00019533683 0.0005869538
0.000462222 0.00146983 0.0021449449 0.00021994425 0.0019417431 0.00064188405 0.0007477221 0.00010406197
0.000503707 0.0005195931 -5.6452333e-05 0.0004861505 0.00011354817 -0.000111382804 -0.00030356576 0.00023860397
00000000: 3146 ca39 372e ad3a 45cd 003b 1f38 2639
00000010: a4f4 e73a b49f 153a 4463 343a b283 b438
00000020: d04e f739 0b2c fb39 bea8 6cb8 adf8 ee39
00000030: 6044 e038 4153 dbb8 e797 95b9 674d 6b39
00000040: 5dff e3ba 579f 97ba bd59 61b9 0014 b6ba
00000050: 5eb3 06b9 0210 f9ba 00b2 af38 7849 a839
00000060: 8b6f 8d39 0442 2bba 88c4 ceb9 5362 113a
00000070: 5322 bb39 7f60 3bba 4c14 62b9 d8e7 9139
00000080: 4913 8eba e4b6 46ba 20ad 1ebb 73a8 7cba
00000090: 1210 7dba d5f9 aeba 6ada a43a 617f 99b8
000000a0: 0d3e 4f37 0679 23ba 0a02 d839 530b bb37
000000b0: 94a7 3235 f401 5a39 5463 1739 8d1e 203a
000000c0: 9065 7ebb 6515 4dbb 23d4 4cbb 40ca 36bb
000000d0: 93e2 d1ba a99b 5bbb 021b 16bb eefa 72ba
000000e0: 5562 6aba 41e5 8fba 072b 5aba 6c27 c5b7
000000f0: 7c87 fa38 b416 04ba b82c e5b9 703e 2439
00000100: 7467 ec38 8832 c23a 2b3d e0ba 5b1e f73a
00000110: bb8b 63ba 3a1e 0cba 0eba 653b caea ce3a
00000120: fe3d 0dba 8304 76ba 1947 4a3a c935 743a
00000130: 0aa9 a1b9 233b 9db9 c3d5 bbb9 65b5 7f3a
00000140: dcac 12ba cb27 ae39 c539 01bb 5e6e f739
00000150: f85f 80ba e056 77ba f254 1b3b 6632 653a
00000160: 8731 96b9 6f5b 4dba 161a 1d3a 1415 0b3a
00000170: c2b2 3db9 555f 38b8 63f6 b2b8 c055 553a
00000180: 909e 90bb fc96 42bb 2719 04bb 6141 19bb
00000190: 47a9 a7ba d6a4 66bb d97c 29bb 186d 68b8
000001a0: 82f0 b0ba c07a 59ba 8c8a 95ba ffb8 f139
000001b0: c77c 8539 0555 1dba d4b3 0bba e76f 8039
000001c0: 0000 0000 0000 0000 0000 0000 0000 0000
000001d0: 0000 0000 0000 0000 0000 0000 0000 0000
000001e0: 0000 0000 0000 0000 0000 0000 0000 0000
000001f0: 0000 0000 0000 0000 0000 0000 0000 0000
00000200: 7574 e439 fccc b53a 8969 073b 28bc 2739
00000210: 6aab f73a 2457 213a f34f 3d3a 2e0c ee38
00000220: 3ecd 053a 1b56 043a 62be 83b8 cf48 003a
00000230: 62cf e738 d726 e9b8 aba0 9db9 56ba 7639
00000240: af0b 97ba 3381 6bba 624c 35bb 969f 9bba
00000250: 779a 7cba d5ce bfba 1760 ae3a 22cb 8cb9
00000260: 4e43 ab38 f932 29ba c012 ef39 e8fe 8bb8
00000270: a1d1 5638 c745 8539 88d0 2f39 698d 2a3a
00000280: 22a3 5138 5d6b 8939 826b 313a bb94 cbb9
00000290: 63d3 e23a 5253 4239 83d3 c339 70bd 0a39
000002a0: 582c 183a dd44 043a 8256 2f37 c805 fc39
000002b0: 6630 f838 0056 1aba 00e0 42b9 f147 6e39
000002c0: ddb7 62ba 3d4d 91b9 e47c 1abb 233e beb9
000002d0: 09e9 86ba 194b a2ba 95c3 e13a e1c0 8e39
000002e0: 5626 19b9 ea63 44ba 6626 ed39 ca0c 6439
000002f0: 650d b0b8 201e bb38 c0b2 9a37 dc9e 303a
00000300: 694a e934 8886 9e3a 893b ecba 50a9 cc3a
00000310: b7af 45ba 2d20 10ba 49c1 633b d4f5 bb3a
00000320: dd38 cab9 73a2 58ba fd9b 643a c22d 5e3a
00000330: d977 73b9 51b2 5bb9 4ffa 85b9 1740 883a
00000340: 0400 0000 0400 0000 0400 0000 0400 0000
00000350: 0400 0000 0400 0000 0400 0000 0400 0000
00000360: 0400 0000 0400 0000 0400 0000 0400 0000
00000370: 0400 0000 0400 0000 0400 0000 0400 0000
00000380: cfbb 9cba 194e 7fba 9580 24bb 9590 a2ba
00000390: 3bd5 7cba 1ff6 b8ba 3276 8c3a ae8e 77b9
000003a0: 97c6 9b38 a6bc 1aba 5764 cd39 44e8 8ab8
000003b0: b85c 1538 2355 8839 55d3 4c39 cedd 193a
000003c0: 6356 f239 50a7 c03a 3492 0c3b d6a0 6639
000003d0: 1682 fe3a 1c44 283a c802 443a d83b da38
000003e0: 340b 043a 4d35 083a 3bc7 6cb8 04e2 fe39
000003f0: b620 ee38 3096 e9b8 e827 9fb9 c431 7a39

exp_avg_sq f4 [256, 16]
0.00010986933 0.000109444016 8.052502e-05 4.8950602e-05 4.797829e-05 3.010663e-05 2.0234247e-05 1.3613632e-05
1.3990077e-05 3.5523167e-06 1.9609245e-06 1.3430231e-06 1.5081214e-06 9.841026e-07 9.2471964e-07 9.536651e-07
0.000119370554 0.00013414316 0.000102543025 5.4419514e-05 5.921707e-05 4.890457e-05 3.4894976e-05 1.7274151e-05
2.0826517e-05 7.5499847e-06 2.330667e-06 2.0530933e-06 2.1698397e-06 1.0638597e-06 1.0165467e-06 1.0315152e-06
1.5496174e-05 2.9422883e-05 4.4322718e-05 2.2279577e-05 1.167805e-05 2.9993998e-05 4.6218385e-05 2.9214474e-05
5.847338e-06 1.4037686e-05 2.6343525e-05 2.3207465e-05 3.5370688e-06 5.0290837e-06 9.568246e-06 1.0889775e-05
6.306149e-05 7.9047546e-05 7.085128e-05 3.3472577e-05 3.1570788e-05 3.8645172e-05 3.3786553e-05 1.5561083e-05
1.5143087e-05 8.743038e-06 2.4052938e-06 2.772415e-06 1.566123e-06 6.032224e-07 5.755214e-07 8.2825795e-07
2.5062649e-05 6.148121e-05 8.5485015e-05 4.5636803e-05 2.105954e-05 6.216487e-05 9.966462e-05 6.141806e-05
8.69105e-06 2.6496546e-05 5.8997284e-05 4.621605e-05 2.8812588e-06 8.694303e-06 1.9339004e-05 2.755356e-05
1.772799e-05 3.911856e-05 5.6609817e-05 2.9236384e-05 1.4240776e-05 3.9828265e-05 6.30525e-05 3.9232593e-05
6.3709117e-06 1.741288e-05 3.674844e-05 2.9817329e-05 2.8360314e-06 5.9164754e-06 1.239178e-05 1.6441958e-05
9.7626136e-05 0.000114314826 8.911419e-05 4.540771e-05 4.8498343e-05 4.4933975e-05 3.5386332e-05 1.5452884e-05
1.9108766e-05 8.378434e-06 2.2597217e-06 1.5871395e-06 1.9128856e-06 8.2554817e-07 8.3975624e-07 7.7590096e-07
0.0 0.0 0.0 0.0 0.0 0.0 0.0 0.0
0.0 0.0 0.0 0.0 0.0 0.0 0.0 0.0
0.000119315046 0.00011843953 8.836444e-05 5.4134944e-05 5.172459e-05 3.2465538e-05 2.2174314e-05 1.5340822e-05
1.48832205e-05 3.8564353e-06 2.1653302e-06 1.604968e-06 1.7260694e-06 1.0918583e-06 1.1057338e-06 1.0532307e-06
1.867792e-05 3.529435e-05 5.3182466e-05 2.6898788e-05 1.39955e-05 3.5847268e-05 5.538939e-05 3.521486e-05
7.085886e-06 1.695761e-05 3.1768133e-05 2.8308035e-05 4.3619843e-06 6.079509e-06 1.1704567e-05 1.3128307e-05
0.000114360584 0.00011679932 8.807784e-05 5.2767915e-05 5.1564864e-05 3.236757e-05 2.191996e-05 1.4836463e-05
1.4943367e-05 3.959331e-06 2.153894e-06 1.6070726e-06 1.7965299e-06 1.1467667e-06 1.1946928e-06 1.040708e-06
1.6494616e-05 3.3484826e-05 4.9747403e-05 2.5192352e-05 1.289308e-05 3.4393193e-05 5.3626612e-05 3.3570646e-05
6.1564833e-06 1.5677768e-05 3.1017655e-05 2.6124053e-05 3.3748663e-06 5.578851e-06 1.0844018e-05 1.3247291e-05
2.5032577e-05 6.0338425e-05 8.437826e-05 4.5020883e-05 2.0733334e-05 6.0846603e-05 9.776164e-05 6.0643528e-05
8.733564e-06 2.6040745e-05 5.776402e-05 4.574043e-05 3.005387e-06 8.526728e-06 1.9098408e-05 2.6915386e-05
1.7385238e-34 1.0839104e-34 6.580993e-35 7.224223e-35 1.0548531e-33 3.8629054e-34 2.1648275e-33 8.744182e-34
1.6000325e-34 9.581562e-33 1.22361064e-32 3.0558781e-33 5.397344e-34 3.5182737e-33 1.1178036e-33 3.8574203e-33
1.5899584e-05 2.9375602e-05 4.444105e-05 2.2296343e-05 1.182678e-05 2.9850346e-05 4.5715045e-05 2.8995937e-05
6.03179e-06 1.417397e-05 2.5904663e-05 2.329168e-05 3.8057328e-06 5.1075517e-06 9.579102e-06 1.0532125e-05
0.00012380678 0.00012259111 9.0383306e-05 5.5050878e-05 5.397432e-05 3.4003602e-05 2.2806491e-05 1.5326947e-05
1.5823895e-05 4.033685e-06 2.170481e-06 1.5038977e-06 1.7575636e-06 1.1077764e-06 1.0495269e-06 1.0628023e-06
00000000: a669 e638 4f85 e538 8adf a838 4f50 4d38
00000010: 4c3c 4938 7f8d fc37 b7bc a937 1b66 6437
00000020: ecb6 6a37 5664 6e36 6d98 0336 ec41 b435
00000030: a86a ca35 8215 8435 403a 7835 5eff 7f35
00000040: 9456 fa38 c8a8 0c39 5e0c d738 8240 6438
00000050: d85f 7838 e21e 4d38 325c 1238 f5e7 9037
00000060: 9bb4 ae37 e055 fd36 8e68 1c36 e0c7 0936
00000070: 909d 1136 f1c9 8e35 4770 8835 9872 8a35
00000080: c8fd 8137 29d1 f637 28e7 3938 07e5 ba37
00000090: d8ec 4337 9f9b fb37 9dda 4138 9b11 f537
000000a0: 4034 c436 6783 6b37 4afc dc37 a7ad c237
000000b0: 615e 6d36 80bf a836 4e87 2037 3ab3 3637
000000c0: e13f 8438 54c6 a538 fe95 9438 e864 0c38
000000d0: e06a 0438 f016 2238 09b6 0d38 2c89 8237
000000e0: 100f 7e37 10af 1237 a26a 2136 ba0d 3a36
000000f0: 9433 d235 21ed 2135 887d 1a35 7455 5e35
00000100: a13d d237 79ef 8038 6b46 b338 256a 3f38
00000110: 05a9 b037 835e 8238 0903 d138 92cd 8038
00000120: c7cf 1137 e644 de37 da73 7738 1bd8 4138
00000130: a65b 4136 bfdd 1137 323a a237 d222 e737
00000140: 92b6 9437 3c13 2438 5470 6d38 a840 f537
00000150: abeb 6e37 460d 2738 0e3b 8438 ad8d 2438
00000160: b7c5 d536 e011 9237 5622 1a38 3a20 fa37
00000170: a652 3e36 2386 c636 4ae6 4f37 d6ec 8937
00000180: a2bc cc38 4ebc ef38 d1e2 ba38 2874 3e38
00000190: b36a 4b38 7d77 3c38 c96b 1438 d1a0 8137
000001a0: c34b a037 1a91 0c37 b9a5 1736 b305 d535
000001b0: 205f 0036 3d9b 5d35 9c6b 6135 8247 5035
000001c0: 0000 0000 0000 0000 0000 0000 0000 0000
000001d0: 0000 0000 0000 0000 0000 0000 0000 0000
000001e0: 0000 0000 0000 0000 0000 0000 0000 0000
000001f0: 0000 0000 0000 0000 0000 0000 0000 0000
00000200: c738 fa38 bd62 f838 4c50 b938 f40e 6338
00000210: dbf2 5838 9b2b 0838 fa02 ba37 2ab0 8037
00000220: f2b2 7937 8766 8136 1750 1136 486a d735
00000230: 4bab e735 f78b 9235 b968 9435 bb5c 8d35
00000240: 87ae 9c37 0509 1438 3d10 5f38 b5a4 e137
00000250: 37ce 6a37 b65a 1638 e851 6838 abb3 1338
00000260: 4cc3 ed36 3140 8e37 c63e 0538 0b77 ed37
00000270: 295d 9236 96fe cb36 bc5e 4437 a641 5c37
00000280: dfd4 ef38 28f2 f438 6eb6 b838 1e53 5d38
00000290: 5a47 5838 6ac2 0738 c1e0 b737 20ea 7837
000002a0: 46b5 7a37 65da 8436 9e8b 1036 98b2 d735
000002b0: 4c20 f135 9bea 9935 5559 a035 74ae 8b35
000002c0: eb5d 8a37 0f72 0c38 dea7 5038 2a54 d337
000002d0: 5b4f 5837 6941 1038 23ed 6038 35ce 0c38
000002e0: ca93 ce36 c083 8337 f418 0238 fa24 db37
000002f0: c37b 6236 f731 bb36 b4ee 3537 ae40 5e37
00000300: 0dfd d137 e413 7d38 3cf4 b038 ced4 3c38
00000310: 7fec ad37 8b35 7f38 6105 cd38 7e5b 7e38
00000320: 5f86 1237 1372 da37 a547 7238 6ad9 3f38
00000330: 28b0 4936 050e 0f37 8535 a037 5ac8 e137
00000340: e616 6707 8f13 1007 ebf3 ae06 840d c006
00000350: 7d44 af08 f75d 0008 cad8 3309 a349 9108
00000360: 49ae 5407 5200 470a 4d22 7e0a 57df 7d09
00000370: 865b 3308 b424 9209 1bba b908 213b a009
00000380: 1960 8537 a06b f637 3766 3a38 0809 bb37
00000390: a26b 4637 2167 fa37 28be 3f38 4d3c f337
000003a0: ae64 ca36 bdcc 6d37 d74d d937 8062 c337
000003b0: fe65 7f36 8961 ab36 eeb5 2037 22b3 3037
000003c0: 21d2 0139 cd8b 0039 2b8c bd38 6ee6 6638
000003d0: 7c62 6238 179f 0e38 9150 bf37 5e92 8037
000003e0: 8ebd 8437 1759 8736 94a8 1136 88d9 c935
000003f0: 6de5 eb35 e8ae 9435 78dd 8c35 9ca5 8e35
