checkpoint.pth (torch, 50229 bytes, 16 tensors)

connected_layer.weight f4 [128, 16]
0.094380975 -0.14684168 -0.07761076 -0.22208032 -0.22661498 -0.15480539 0.08647215 -0.20432296
-0.12783095 0.15603021 0.15192428 -0.10537776 0.155303 -0.14974552 0.013566166 0.088370085
-0.19413652 0.217687 0.06488552 -0.0041855928 0.22114725 0.1311249 -0.23351054 0.110239446
-0.19079487 -0.04421614 -0.09571079 -0.16710958 -0.018084357 -0.0043713967 -0.049068585 -0.15067533
0.044991773 0.1795017 0.020948928 -0.012361813 0.12551679 0.21176891 0.2508482 -0.03396799
0.09781714 0.09581484 -0.12280284 0.044765633 0.20937262 -0.12332545 0.07011755 0.19357736
-0.22284336 0.14244385 -0.13032775 0.13078803 0.13241597 0.046433944 0.08903973 0.23810555
0.026485074 0.22856586 0.16654192 -0.0007296294 -0.07595058 0.049834568 0.12812282 0.15513678
0.07216764 0.24397291 0.2417361 0.10409335 0.05962203 -0.020570088 -0.04973926 -0.107705586
-0.11369216 0.18975414 -0.1457964 0.11462838 0.15902121 0.12236333 -0.057650108 -0.026126187
0.18059422 0.15218182 -0.17079282 -0.024771482 0.029466745 -0.12098775 0.13273652 -0.05195168
0.20239182 0.011720085 0.09709545 0.24743749 0.14172445 -0.124032654 0.15456046 0.17426676
0.20498502 -0.01683592 0.14024328 0.06278641 0.11074106 0.18210605 -0.08187513 -0.23922098
0.027063804 -0.022155482 -0.19060938 0.10659533 -0.16266894 0.12675928 0.14466044 0.24626958
0.23235077 -0.16220956 0.036610603 0.08086191 -0.18277997 0.111448616 -0.24329226 -0.11545342
-0.015794601 0.112564296 -0.12845236 0.00010278821 0.11205441 -0.19333686 -0.1604448 -0.22429073
0.24561961 -0.054779746 -0.24007913 -0.08846745 -0.027873432 -0.054860365 0.08500748 0.068235956
0.04996007 0.046916444 0.24249323 0.00477626 0.09921401 0.13420418 0.22086175 0.214522
0.04967895 -0.23272276 -0.2050167 -0.14040402 0.2161169 -0.11143991 -0.080905944 -0.082522094
-0.1552456 0.18687868 -0.18185163 -0.2054007 0.10253212 -0.116796136 0.12771475 -0.11559445
0.24763559 -0.015298147 0.09554596 -0.15807863 0.029600304 0.2270013 -0.22567393 0.16319539
-0.19308089 0.062492263 0.07667418 0.18726961 0.16364332 -0.145088 -0.07423492 -0.07394098
-0.17694558 0.17146166 -0.04350705 0.12039252 -0.13528146 -0.030008059 0.14442627 0.13042109
-0.19675581 -0.15297644 0.1994005 -0.052372675 -0.12834127 -0.08358646 -0.04645134 0.092437856
0.21814795 0.07979586 0.15772249 0.04335771 -0.060960922 -0.22656897 -0.2265226 0.0044691493
-0.089311026 0.24272755 -0.24489744 0.12257829 0.048929922 0.043344077 0.060410026 -0.039321132
-0.23184308 0.024172515 0.06364682 -0.07236999 0.1285752 0.22621056 -0.06669173 -0.015679926
-0.16055787 -0.0994443 -0.17490652 -0.004621625 0.24587151 0.043675154 0.05449125 -0.23168972
0.06953436 0.12800467 0.11447123 -0.18310615 0.12322652 -0.16386119 0.13023683 -0.006518632
0.11994395 0.00858143 -0.057584733 0.13464573 -0.19640294 -0.1198065 0.03640771 0.23238623
-0.18360573 -0.13426676 -0.20432195 0.078766614 -0.06539053 -0.20966104 0.112840325 0.062235475
-0.023419678 -0.036710203 -0.22706947 -0.008779705 -0.10804552 0.23706141 0.13958555 -0.037373096
00000000: d04a c13d aa5d 16be 64f2 9ebd 0669 63be
00000010: c20d 68be 4e85 1ebe 5018 b13d 0a3a 51be
00000020: 1ee6 02be 62c6 1f3e 0a92 1b3e 4cd0 d7bd
00000030: c007 1f3e e456 19be a044 5e3c 60fb b43d
00000040: b9cb 46be 57e9 5e3e b3e2 843d 4c27 89bb
00000050: 6d74 623e 9b45 063e 631d 6fbe 38c5 e13d
00000060: bb5f 43be fc1b 35bd 0504 c4bd c61e 2bbe
00000070: a525 94bc ef3d 8fbb 24fc 48bd a24a 1abe
00000080: 4b49 383d 4bcf 373e 169d ab3c 3489 4abc
00000090: 7987 003e f3d9 583e 2d6f 803e 0522 0bbd
000000a0: 5a54 c83d 923a c43d 0e80 fbbd 2b5c 373d
000000b0: c765 563e 0e92 fcbd ca99 8f3d 2539 463e
000000c0: 0d31 64be cddc 113e a374 05be 4ced 053e
000000d0: 0d98 073e 8531 3e3d 765a b63d f1d1 733e
000000e0: 3af7 d83c 2b0d 6a3e f789 2a3e 9a44 3fba
000000f0: fa8b 9bbd 551f 4c3d a132 033e 2ddc 1e3e
00000100: a1cc 933d 09d4 793e ab89 773e e52e d53d
00000110: 3b36 743d 9a82 a8bc 65bb 4bbd bf94 dcbd
00000120: 6fd7 e8bd e94e 423e a74b 15be 49c2 ea3d
00000130: 75d6 223e a099 fa3d 8522 6cbd 9606 d6bc
00000140: b1ed 383e 8dd5 1b3e 50e4 2ebe 90ed cabc
00000150: 3e64 f13c 6dc8 f7bd 15ec 073e 49cb 54bd
00000160: cd3f 4f3e 9905 403c fbd9 c63d 4160 7d3e
00000170: 3720 113e d504 febd 1945 1e3e fc72 323e
00000180: 98e7 513e 7ceb 89bc ef9b 0f3e 2996 803d
00000190: 35cc e23d 027a 3a3e 26ae a7bd 58f6 74be
000001a0: e9b4 dd3c 6a7f b5bc 1b2f 43be a74e da3d
000001b0: b092 26be 2fcd 013e de21 143e 182e 7c3e
000001c0: 5ced 6d3e 431a 26be 00f5 153d ee9a a53d
000001d0: ac2a 3bbe 2c3f e43d 9b21 79be d872 ecbd
000001e0: ae63 81bc 1c88 e63d 0489 03be 0090 d738
000001f0: c87c e53d 19fa 45be a44b 24be 78ac 65be
00000200: b583 7b3e ba60 60bd 4ed7 75be 6c2e b5bd
00000210: d356 e4bc 43b5 60bd 6718 ae3d 4bbf 8b3d
00000220: eea2 4c3d 752b 403d 2550 783e 2c82 9c3b
00000230: b730 cb3d d26c 093e 9529 623e a8ab 5b3e
00000240: 287c 4b3d e04e 6ebe e6ef 51be 12c6 0fbe
00000250: c04d 5d3e 9c3a e4bd 04b2 a5bd 5801 a9bd
00000260: b4f8 1ebe 205d 3f3e 5037 3abe 9054 52be
00000270: 5cfc d13d d032 efbd a8c7 023e c8bc ecbd
00000280: 2f94 7d3e 14a5 7abc 9aad c33d 5ddf 21be
00000290: 567c f23c 0773 683e 1117 67be b11c 273e
000002a0: ffb6 45be e3f7 7f3d 5a07 9d3d 9bc3 3f3e
000002b0: 1d92 273e f391 14be 7a08 98bd 5e6e 97bd
000002c0: 3931 35be a593 2f3e 7334 32bd 5b90 f63d
000002d0: 3987 0abe 76d3 f5bc 7be4 133e 1b8d 053e
000002e0: 5b7a 49be dba5 1cbe a52f 4c3e bb84 56bd
000002f0: e56b 03be 612f abbd c343 3ebd 0f50 bd3d
00000300: 2d62 5f3e 036c a33d 0182 213e db97 313d
00000310: 29b2 79bd b201 68be 8af5 67be f171 923b
00000320: b3e8 b6bd 928d 783e 65c6 7abe 540a fb3d
00000330: be6a 483d 8f89 313d 8170 773d 320f 21bd
00000340: 4668 6dbe 7005 c63c 4459 823d b836 94bd
00000350: 38a9 033e bea3 673e ac95 88bd 3073 80bc
00000360: 4869 24be 74a9 cbbd b21a 33be 0071 97bb
00000370: bec5 7b3e b8e4 323d 3832 5f3d 1240 6dbe
00000380: 0868 8e3d a813 033e e46f ea3d 2e80 3bbe
00000390: 305e fc3d 3acb 27be ce5c 053e 409a d5bb
000003a0: 2ca5 f53d 2099 0c3c f8dd 6bbd 92e0 093e
000003b0: da1d 49be 1c5d f5bd 4020 153d a8f6 6d3e
000003c0: 2403 3cbe 3a7d 09be c639 51be 6450 a13d
000003d0: 78eb 85bd 62b1 56be d418 e73d a0ea 7e3d
000003e0: a0da bfbc 705d 16bd e684 68be c0d8 0fbc
000003f0: f846 ddbd 3ac0 723e 84ef 0e3e 8814 19bd

connected_layer.bias f4 [128]
-0.22187564 0.007865655 0.23027466 0.11608492 0.1738606 -0.23604877 -0.17570108 0.013564535
-0.22682019 -0.2152507 0.13932182 0.029139506 -0.033153284 -0.15240216 -0.23183548 -0.23325056
-0.18776348 0.1398433 -0.05813389 -0.05447644 0.17442618 0.085364714 -0.1919728 0.23392181
0.094145365 -0.19554421 0.16362296 0.20261677 0.20326228 -0.21690288 -0.20743012 0.13808881
0.054578315 0.017613778 0.1765614 0.015861137 -0.19632715 0.04230823 -0.19910207 -0.13700752
0.09114359 -0.232871 0.046396155 0.0845811 -0.24492612 -0.06431948 0.0029368103 0.15895942
-0.053830683 0.14257626 0.092311725 -0.17016119 0.1251977 -0.018696021 -0.24541298 0.09482438
0.030036466 -0.23748383 0.11990918 0.1563731 0.15090676 -0.13544944 0.04109757 0.14448838
-0.08574641 0.039981883 0.19784589 -0.0925109 0.0731086 -0.081726015 -0.20562288 0.048003096
-0.14669237 -0.1207113 -0.08055028 -0.106015 -0.024567366 0.20262416 0.10019232 0.21680547
0.15739812 -0.025317896 0.15060945 -0.11328471 0.20758338 0.1898004 0.15608315 -0.13090745
0.01731546 -0.2230567 0.06135096 0.19409584 0.110867605 -0.021478575 0.06674781 0.18191902
-0.07249841 -0.03371938 0.20689939 0.2491488 0.1887378 -0.17506453 -0.13247484 0.085896805
-0.03161187 0.071488805 -0.20309705 -0.23814383 0.16589029 -0.081716776 -0.19111305 -0.077270746
-0.12941596 -0.119403645 -0.17918223 -0.12290993 -0.092430264 -0.23082608 -0.21799847 -0.08218677
0.23489057 -0.19813278 0.21659328 -0.10760045 -0.18825462 0.2193306 0.095730886 -0.22421443
00000000: 5e33 63be f3de 003c 1fcd 6b3e eebd ed3d
00000010: 8308 323e c5b6 71be fcea 33be c93d 5e3c
00000020: 8d43 68be ae6a 5cbe 61aa 0e3e f9b5 ee3c
00000030: bdcb 07bd 500f 1cbe 4866 6dbe 3cd9 6ebe
00000040: 1245 40be 1533 0f3e cd1d 6ebd b022 5fbd
00000050: c79c 323e b2d3 ae3d 8594 44be 3389 6f3e
00000060: 49cf c03d be3c 48be c78c 273e c57a 4f3e
00000070: fd23 503e ca1b 5ebe 9068 54be 2767 0d3e
00000080: 838d 5f3d c54a 903c 83cc 343e 37ef 813c
00000090: fc09 49be 654b 2d3d 6ae1 4bbe b34b 0cbe
000000a0: 7ea9 ba3d bc75 6ebe e509 3e3d db38 ad3d
000000b0: eacd 7abe eeb9 83bd 8077 403b 42c6 223e
000000c0: 907d 5cbd 83ff 113e ee0d bd3d bc3e 2ebe
000000d0: d333 003e 6628 99bc 8a4d 7bbe 4933 c23d
000000e0: 090f f63c f62e 73be f292 f53d 4520 203e
000000f0: 4d87 1a3e 42b3 0abe ed55 283d c3f4 133e
00000100: d09b afbd 0bc4 233d 1d98 4a3e 5b76 bdbd
00000110: f6b9 953d f85f a7bd ce8e 52be e59e 443d
00000120: 8636 16be 7c37 f7bd 8cf7 a4bd 641e d9bd
00000130: 8041 c9bc b57c 4f3e a231 cd3d 4102 5e3e
00000140: f92c 213e 7a67 cfbc 5d39 1a3e d001 e8bd
00000150: bd90 543e 095b 423e 43d4 1f3e 9a0c 06be
00000160: 27d9 8d3c fa68 64be 254b 7b3d 0fc1 463e
00000170: 8e0e e33d d6f3 afbc 13b3 883d fb48 3a3e
00000180: 0c7a 94bd 551d 0abd 6fdd 533e dd20 7f3e
00000190: 7b44 413e 1e44 33be 7ca7 07be aaea af3d
000001a0: 737b 01bd b968 923d acf8 4fbe fadb 73be
000001b0: 25df 293e 205b a7bd 24b3 43be 2040 9ebd
000001c0: 9e85 04be e689 f4bd 8c7b 37be 34b8 fbbd
000001d0: 144c bdbd ac5d 6cbe fe3a 5fbe 8a51 a8bd
000001e0: 2787 703e 52e3 4abe a1ca 5d3e a05d dcbd
000001f0: d2c5 40be 3398 603e 8e0e c43d 7898 65be

out.weight f4 [4, 128]
-0.00028549135 0.05291817 0.022460757 -0.050082285 -0.051989157 -0.08501034 -0.07511565 -0.018213168
-0.05811809 -0.037472636 0.08168291 -0.04849864 -0.017461332 -0.043266226 0.088131495 -0.068857916
-0.06733621 -0.0092741875 0.0827897 -0.07617344 -0.072793566 0.024656793 0.07199836 -0.0050569796
0.05146684 -0.03451066 0.054116596 -0.019709738 -0.04046584 -0.042856023 0.069889225 0.057485346
0.087303095 -0.050036516 0.06542321 -0.013454409 0.058503024 -0.023873592 0.0030488372 -0.07754601
8.410727e-05 -0.06860165 -0.0061965757 0.053984467 -0.02689223 -0.038305424 -0.05217863 -0.041306734
0.066658445 -0.07383751 -0.003789576 0.014822729 0.079898916 -0.040211536 0.04574766 -0.06526424
-0.026985731 -0.025404245 -0.019124674 0.07206199 -0.037825223 -0.07402941 0.044680465 0.059751276
0.011846639 -0.06641083 -0.034822937 -0.01320802 0.063765176 0.076329224 0.08087321 -0.05169653
0.077761374 0.066807605 -0.026226077 -0.0018109679 -0.019691385 -0.07947505 -0.0599282 0.057905275
0.061386514 -0.02385726 -0.008569481 -0.04621854 -0.0027491844 -0.05738545 0.08270914 0.07849725
0.08124951 0.082057334 0.0071278117 0.01564983 0.011459779 -0.0027106279 0.07402668 -0.0517497
0.041070603 0.04997921 -0.08682409 0.08617864 0.0065016053 -0.012393966 0.034480423 -0.039235026
-0.076064065 0.04388079 0.057044692 0.08020865 0.046674225 -0.028211605 0.0015538931 -0.08027786
-0.011864057 -0.07919679 -0.0046203807 0.042676218 -0.06533128 0.0059792697 -0.08817877 -0.028095843
0.016615262 -0.004973352 -0.07541323 0.019451931 -0.044024576 0.049321968 0.033513166 0.032203004
-0.087635845 -0.07116691 0.06635905 0.001975132 0.08707138 0.058008544 -0.07680114 -0.016020253
0.0581005 0.010394245 0.069888376 -0.0794245 0.057218272 -0.022794448 -0.011489473 0.017721176
0.06573639 -0.035966024 -0.0336645 -0.0768791 0.0028051564 0.027213214 0.07924941 0.05812456
-0.042462718 -0.039991636 0.03169998 -0.023016552 -0.029775029 -0.08402924 -0.042692922 -0.04913214
0.08142147 0.0750634 0.016868709 0.035339657 0.035406716 0.04305515 -0.035284784 -0.0024303943
-0.06832366 0.04343427 -0.027952207 -0.027026938 -0.0504795 -0.06034575 0.028194785 0.016669123
-0.06932887 -0.05248041 0.00039600363 0.017802283 -0.06443533 0.062987655 -0.081683084 0.08189193
-0.06887054 0.08793125 -0.013194847 0.028229697 -0.08349175 -0.026680376 -0.058380213 0.04397968
-0.049423166 0.007392709 -0.085784696 0.06040019 -0.039554395 0.06651025 -0.08636769 0.010403473
-0.042045865 -0.03947779 -0.003453821 0.04205937 -0.0785806 0.029305076 0.02895922 0.06116796
0.059468914 0.08746157 0.0047451085 -0.069608316 0.06212828 -0.059581302 0.031832423 -0.03504698
0.040758375 0.08533505 -0.004826369 0.022234617 -0.026713628 -0.056312088 -0.064734325 -0.025506036
0.0531305 0.07221105 0.024356617 0.061456863 0.08831609 -0.07132213 -0.021016933 0.04935609
-0.034736797 -0.023059826 0.039592408 -0.06340937 0.013369424 -0.04462429 0.06456355 0.018390127
0.081134066 -0.07254208 -0.07904033 -0.0055436417 -0.0026090816 -0.0066599622 -0.07777147 -0.069294594
-0.00031631658 -0.0691071 0.05840004 -0.073619194 -0.023916058 0.021782538 -0.02612967 0.083092354
00000000: 00ae 95b9 b9c0 583d 9fff b73c 1523 4dbd
00000010: 95f2 54bd e719 aebd 3cd6 99bd c833 95bc
00000020: 3c0d 6ebd e87c 19bd 5f49 a73d 83a6 46bd
00000030: 110b 8fbc ed37 31bd 497e b43d 6105 8dbd
00000040: 91e7 89bd c3f2 17bc a58d a93d d200 9cbd
00000050: cb14 95bd 0bfd c93c e073 933d 05b5 a5bb
00000060: e5ce 523d 0d5b 0dbd 5da9 5d3d 5176 a1bc
00000070: 82bf 25bd cc89 2fbd 1522 8f3d c175 6b3d
00000080: f7cb b23d 17f3 4cbd 9bfc 853d e26f 5cbc
00000090: dea0 6f3d 8d92 c3bc 00cf 473b 71d0 9ebd
000000a0: bf62 b038 067f 8cbd a50c cbbb d11e 5d3d
000000b0: 184d dcbc 26e6 1cbd 42b9 55bd 4031 29bd
000000c0: 3984 883d 1f38 97bd 895a 78bb 08db 723c
000000d0: 0ba2 a33d dab4 24bd e661 3b3d 42a9 85bd
000000e0: 2e11 ddbc 901c d0bc 59ab 9cbc 3d95 933d
000000f0: 9fee 1abd bb9c 97bd dd02 373d c1bd 743d
00000100: 6818 423c 6702 88bd 7fa2 0ebd 7366 58bc
00000110: 5197 823d 7f52 9c3d dba0 a53d bebf 53bd
00000120: 5b41 9f3d 6dd2 883d 12d8 d6bc 005e edba
00000130: d44f a1bc d1c3 a2bd 4677 75bd 152e 6d3d
00000140: 6d70 7b3d 4d70 c3bc 0267 0cbc a74f 3dbd
00000150: a92b 34bb 010d 6bbd 6963 a93d 2bc3 a03d
00000160: 2566 a63d ad0d a83d 6b90 e93b 1334 803c
00000170: ccc1 3b3c caa4 31bb 4d9b 973d 7ef7 53bd
00000180: a639 283d 00b7 4c3d d4d0 b1bd 6d7e b03d
00000190: 6b0b d53b 1010 4bbc 583b 0d3d e8b4 20bd
000001a0: 7ac7 9bbd 58bc 333d b2a7 693d 6f44 a43d
000001b0: 792d 3f3d 061c e7bc 00ac cb3a b868 a4bd
000001c0: 7661 42bc ed31 a2bd 9066 97bb 42cd 2e3d
000001d0: 68cc 85bd c0ed c33b 1297 b4bd 4129 e6bc
000001e0: bb1c 883c 80f7 a2bb 4072 9abd a859 9f3c
000001f0: 1d53 34bd d505 4a3d 1a45 093d 4ce7 033d
00000200: 6c7a b3bd f5bf 91bd 41e7 873d 3771 013b
00000210: 7b52 b23d 5e9a 6d3d eb49 9dbd e83c 83bc
00000220: cafa 6d3d a04c 2a3c a321 8f3d 50a9 a2bd
00000230: b55d 6a3d 6cbb babc 583e 3cbc 002c 913c
00000240: cda0 863d 1c51 13bd c9e3 09bd ca72 9dbd
00000250: b7d6 373b 3fee de3c 844d a23d 0514 6e3d
00000260: 63ed 2dbd 45ce 23bd d7d7 013d 358d bcbc
00000270: c3ea f3bc 8617 acbd c6de 2ebd c83e 49bd
00000280: 4dc0 a63d d7ba 993d 3f30 8a3c 51c0 103d
00000290: a206 113d 995a 303d c786 10bd 4047 1fbb
000002a0: 46ed 8bbd 22e8 313d 07fc e4bc 9967 ddbc
000002b0: 98c3 4ebd 1b2d 77bd c0f8 e63c af8d 883c
000002c0: 4bfc 8dbd b3f5 56bd b59e cf39 18d6 913c
000002d0: acf6 83bd acff 803d 7649 a7bd f5b6 a73d
000002e0: ff0b 8dbd 4d15 b43d 332f 58bc f741 e73c
000002f0: b9fd aabd ce90 dabc 1720 6fbd 0924 343d
00000300: f26f 4abd 8a3e f23b e3af afbd 3166 773d
00000310: ca03 22bd 8736 883d 8be1 b0bd 5473 2a3c
00000320: 4938 2cbd 77b3 21bd 8059 62bb 7246 2c3d
00000330: deee a0bd 3311 f03c e33b ed3c 418b 7a3d
00000340: ad95 733d 0d1f b33d db7c 9b3b ce8e 8ebd
00000350: 397a 7e3d 860b 74bd b762 023d 6c8d 0fbd
00000360: 41f2 263d 25c4 ae3d 8526 9ebb 5f25 b63c
00000370: 8ad6 dabc 81a7 66bd 6e93 84bd 09f2 d0bc
00000380: 5e9f 593d 63e3 933d 8787 c73c 31ba 7b3d
00000390: 11df b43d 5611 92bd b42b acbc 9d29 4a3d
000003a0: 2c48 0ebd f6e7 bcbc a62b 223d c6dc 81bd
000003b0: 6e0b 5b3c f6c7 36bd e539 843d e4a6 963c
000003c0: 9e29 a63d f190 94bd e6df a1bd 70a7 b5bb
000003d0: 20fd 2abb d03b dabb a646 9fbd 53ea 8dbd
000003e0: 4bd7 a5b9 0688 8dbd e134 6f3d a9c5 96bd
000003f0: 9ceb c3bc 4b71 b23c e40d d6bc 532c aa3d

out.bias f4 [4]
0.046204407 0.0023077184 -0.0372114 -0.013872856
00000000: d540 3d3d 173d 173b fb6a 18bd fa4a 63bc

connected_layer.weight f4 [128, 16]
0.094380975 -0.14684168 -0.07761076 -0.22208032 -0.22661498 -0.15480539 0.08647215 -0.20432296
-0.12783095 0.15603021 0.15192428 -0.10537776 0.155303 -0.14974552 0.013566166 0.088370085
-0.19413652 0.217687 0.06488552 -0.0041855928 0.22114725 0.1311249 -0.23351054 0.110239446
-0.19079487 -0.04421614 -0.09571079 -0.16710958 -0.018084357 -0.0043713967 -0.049068585 -0.15067533
0.044991773 0.1795017 0.020948928 -0.012361813 0.12551679 0.21176891 0.2508482 -0.03396799
0.09781714 0.09581484 -0.12280284 0.044765633 0.20937262 -0.12332545 0.07011755 0.19357736
-0.22284336 0.14244385 -0.13032775 0.13078803 0.13241597 0.046433944 0.08903973 0.23810555
0.026485074 0.22856586 0.16654192 -0.0007296294 -0.07595058 0.049834568 0.12812282 0.15513678
0.07216764 0.24397291 0.2417361 0.10409335 0.05962203 -0.020570088 -0.04973926 -0.107705586
-0.11369216 0.18975414 -0.1457964 0.11462838 0.15902121 0.12236333 -0.057650108 -0.026126187
0.18059422 0.15218182 -0.17079282 -0.024771482 0.029466745 -0.12098775 0.13273652 -0.05195168
0.20239182 0.011720085 0.09709545 0.24743749 0.14172445 -0.124032654 0.15456046 0.17426676
0.20498502 -0.01683592 0.14024328 0.06278641 0.11074106 0.18210605 -0.08187513 -0.23922098
0.027063804 -0.022155482 -0.19060938 0.10659533 -0.16266894 0.12675928 0.14466044 0.24626958
0.23235077 -0.16220956 0.036610603 0.08086191 -0.18277997 0.111448616 -0.24329226 -0.11545342
-0.015794601 0.112564296 -0.12845236 0.00010278821 0.11205441 -0.19333686 -0.1604448 -0.22429073
0.24561961 -0.054779746 -0.24007913 -0.08846745 -0.027873432 -0.054860365 0.08500748 0.068235956
0.04996007 0.046916444 0.24249323 0.00477626 0.09921401 0.13420418 0.22086175 0.214522
0.04967895 -0.23272276 -0.2050167 -0.14040402 0.2161169 -0.11143991 -0.080905944 -0.082522094
-0.1552456 0.18687868 -0.18185163 -0.2054007 0.10253212 -0.116796136 0.12771475 -0.11559445
0.24763559 -0.015298147 0.09554596 -0.15807863 0.029600304 0.2270013 -0.22567393 0.16319539
-0.19308089 0.062492263 0.07667418 0.18726961 0.16364332 -0.145088 -0.07423492 -0.07394098
-0.17694558 0.17146166 -0.04350705 0.12039252 -0.13528146 -0.030008059 0.14442627 0.13042109
-0.19675581 -0.15297644 0.1994005 -0.052372675 -0.12834127 -0.08358646 -0.04645134 0.092437856
0.21814795 0.07979586 0.15772249 0.04335771 -0.060960922 -0.22656897 -0.2265226 0.0044691493
-0.089311026 0.24272755 -0.24489744 0.12257829 0.048929922 0.043344077 0.060410026 -0.039321132
-0.23184308 0.024172515 0.06364682 -0.07236999 0.1285752 0.22621056 -0.06669173 -0.015679926
-0.16055787 -0.0994443 -0.17490652 -0.004621625 0.24587151 0.043675154 0.05449125 -0.23168972
0.06953436 0.12800467 0.11447123 -0.18310615 0.12322652 -0.16386119 0.13023683 -0.006518632
0.11994395 0.00858143 -0.057584733 0.13464573 -0.19640294 -0.1198065 0.03640771 0.23238623
-0.18360573 -0.13426676 -0.20432195 0.078766614 -0.06539053 -0.20966104 0.112840325 0.062235475
-0.023419678 -0.036710203 -0.22706947 -0.008779705 -0.10804552 0.23706141 0.13958555 -0.037373096
00000000: d04a c13d aa5d 16be 64f2 9ebd 0669 63be
00000010: c20d 68be 4e85 1ebe 5018 b13d 0a3a 51be
00000020: 1ee6 02be 62c6 1f3e 0a92 1b3e 4cd0 d7bd
00000030: c007 1f3e e456 19be a044 5e3c 60fb b43d
00000040: b9cb 46be 57e9 5e3e b3e2 843d 4c27 89bb
00000050: 6d74 623e 9b45 063e 631d 6fbe 38c5 e13d
00000060: bb5f 43be fc1b 35bd 0504 c4bd c61e 2bbe
00000070: a525 94bc ef3d 8fbb 24fc 48bd a24a 1abe
00000080: 4b49 383d 4bcf 373e 169d ab3c 3489 4abc
00000090: 7987 003e f3d9 583e 2d6f 803e 0522 0bbd
000000a0: 5a54 c83d 923a c43d 0e80 fbbd 2b5c 373d
000000b0: c765 563e 0e92 fcbd ca99 8f3d 2539 463e
000000c0: 0d31 64be cddc 113e a374 05be 4ced 053e
000000d0: 0d98 073e 8531 3e3d 765a b63d f1d1 733e
000000e0: 3af7 d83c 2b0d 6a3e f789 2a3e 9a44 3fba
000000f0: fa8b 9bbd 551f 4c3d a132 033e 2ddc 1e3e
00000100: a1cc 933d 09d4 793e ab89 773e e52e d53d
00000110: 3b36 743d 9a82 a8bc 65bb 4bbd bf94 dcbd
00000120: 6fd7 e8bd e94e 423e a74b 15be 49c2 ea3d
00000130: 75d6 223e a099 fa3d 8522 6cbd 9606 d6bc
00000140: b1ed 383e 8dd5 1b3e 50e4 2ebe 90ed cabc
00000150: 3e64 f13c 6dc8 f7bd 15ec 073e 49cb 54bd
00000160: cd3f 4f3e 9905 403c fbd9 c63d 4160 7d3e
00000170: 3720 113e d504 febd 1945 1e3e fc72 323e
00000180: 98e7 513e 7ceb 89bc ef9b 0f3e 2996 803d
00000190: 35cc e23d 027a 3a3e 26ae a7bd 58f6 74be
000001a0: e9b4 dd3c 6a7f b5bc 1b2f 43be a74e da3d
000001b0: b092 26be 2fcd 013e de21 143e 182e 7c3e
000001c0: 5ced 6d3e 431a 26be 00f5 153d ee9a a53d
000001d0: ac2a 3bbe 2c3f e43d 9b21 79be d872 ecbd
000001e0: ae63 81bc 1c88 e63d 0489 03be 0090 d738
000001f0: c87c e53d 19fa 45be a44b 24be 78ac 65be
00000200: b583 7b3e ba60 60bd 4ed7 75be 6c2e b5bd
00000210: d356 e4bc 43b5 60bd 6718 ae3d 4bbf 8b3d
00000220: eea2 4c3d 752b 403d 2550 783e 2c82 9c3b
00000230: b730 cb3d d26c 093e 9529 623e a8ab 5b3e
00000240: 287c 4b3d e04e 6ebe e6ef 51be 12c6 0fbe
00000250: c04d 5d3e 9c3a e4bd 04b2 a5bd 5801 a9bd
00000260: b4f8 1ebe 205d 3f3e 5037 3abe 9054 52be
00000270: 5cfc d13d d032 efbd a8c7 023e c8bc ecbd
00000280: 2f94 7d3e 14a5 7abc 9aad c33d 5ddf 21be
00000290: 567c f23c 0773 683e 1117 67be b11c 273e
000002a0: ffb6 45be e3f7 7f3d 5a07 9d3d 9bc3 3f3e
000002b0: 1d92 273e f391 14be 7a08 98bd 5e6e 97bd
000002c0: 3931 35be a593 2f3e 7334 32bd 5b90 f63d
000002d0: 3987 0abe 76d3 f5bc 7be4 133e 1b8d 053e
000002e0: 5b7a 49be dba5 1cbe a52f 4c3e bb84 56bd
000002f0: e56b 03be 612f abbd c343 3ebd 0f50 bd3d
00000300: 2d62 5f3e 036c a33d 0182 213e db97 313d
00000310: 29b2 79bd b201 68be 8af5 67be f171 923b
00000320: b3e8 b6bd 928d 783e 65c6 7abe 540a fb3d
00000330: be6a 483d 8f89 313d 8170 773d 320f 21bd
00000340: 4668 6dbe 7005 c63c 4459 823d b836 94bd
00000350: 38a9 033e bea3 673e ac95 88bd 3073 80bc
00000360: 4869 24be 74a9 cbbd b21a 33be 0071 97bb
00000370: bec5 7b3e b8e4 323d 3832 5f3d 1240 6dbe
00000380: 0868 8e3d a813 033e e46f ea3d 2e80 3bbe
00000390: 305e fc3d 3acb 27be ce5c 053e 409a d5bb
000003a0: 2ca5 f53d 2099 0c3c f8dd 6bbd 92e0 093e
000003b0: da1d 49be 1c5d f5bd 4020 153d a8f6 6d3e
000003c0: 2403 3cbe 3a7d 09be c639 51be 6450 a13d
000003d0: 78eb 85bd 62b1 56be d418 e73d a0ea 7e3d
000003e0: a0da bfbc 705d 16bd e684 68be c0d8 0fbc
000003f0: f846 ddbd 3ac0 723e 84ef 0e3e 8814 19bd

connected_layer.bias f4 [128]
-0.22187564 0.007865655 0.23027466 0.11608492 0.1738606 -0.23604877 -0.17570108 0.013564535
-0.22682019 -0.2152507 0.13932182 0.029139506 -0.033153284 -0.15240216 -0.23183548 -0.23325056
-0.18776348 0.1398433 -0.05813389 -0.05447644 0.17442618 0.085364714 -0.1919728 0.23392181
0.094145365 -0.19554421 0.16362296 0.20261677 0.20326228 -0.21690288 -0.20743012 0.13808881
0.054578315 0.017613778 0.1765614 0.015861137 -0.19632715 0.04230823 -0.19910207 -0.13700752
0.09114359 -0.232871 0.046396155 0.0845811 -0.24492612 -0.06431948 0.0029368103 0.15895942
-0.053830683 0.14257626 0.092311725 -0.17016119 0.1251977 -0.018696021 -0.24541298 0.09482438
0.030036466 -0.23748383 0.11990918 0.1563731 0.15090676 -0.13544944 0.04109757 0.14448838
-0.08574641 0.039981883 0.19784589 -0.0925109 0.0731086 -0.081726015 -0.20562288 0.048003096
-0.14669237 -0.1207113 -0.08055028 -0.106015 -0.024567366 0.20262416 0.10019232 0.21680547
0.15739812 -0.025317896 0.15060945 -0.11328471 0.20758338 0.1898004 0.15608315 -0.13090745
0.01731546 -0.2230567 0.06135096 0.19409584 0.110867605 -0.021478575 0.06674781 0.18191902
-0.07249841 -0.03371938 0.20689939 0.2491488 0.1887378 -0.17506453 -0.13247484 0.085896805
-0.03161187 0.071488805 -0.20309705 -0.23814383 0.16589029 -0.081716776 -0.19111305 -0.077270746
-0.12941596 -0.119403645 -0.17918223 -0.12290993 -0.092430264 -0.23082608 -0.21799847 -0.08218677
0.23489057 -0.19813278 0.21659328 -0.10760045 -0.18825462 0.2193306 0.095730886 -0.22421443
00000000: 5e33 63be f3de 003c 1fcd 6b3e eebd ed3d
00000010: 8308 323e c5b6 71be fcea 33be c93d 5e3c
00000020: 8d43 68be ae6a 5cbe 61aa 0e3e f9b5 ee3c
00000030: bdcb 07bd 500f 1cbe 4866 6dbe 3cd9 6ebe
00000040: 1245 40be 1533 0f3e cd1d 6ebd b022 5fbd
00000050: c79c 323e b2d3 ae3d 8594 44be 3389 6f3e
00000060: 49cf c03d be3c 48be c78c 273e c57a 4f3e
00000070: fd23 503e ca1b 5ebe 9068 54be 2767 0d3e
00000080: 838d 5f3d c54a 903c 83cc 343e 37ef 813c
00000090: fc09 49be 654b 2d3d 6ae1 4bbe b34b 0cbe
000000a0: 7ea9 ba3d bc75 6ebe e509 3e3d db38 ad3d
000000b0: eacd 7abe eeb9 83bd 8077 403b 42c6 223e
000000c0: 907d 5cbd 83ff 113e ee0d bd3d bc3e 2ebe
000000d0: d333 003e 6628 99bc 8a4d 7bbe 4933 c23d
000000e0: 090f f63c f62e 73be f292 f53d 4520 203e
000000f0: 4d87 1a3e 42b3 0abe ed55 283d c3f4 133e
00000100: d09b afbd 0bc4 233d 1d98 4a3e 5b76 bdbd
00000110: f6b9 953d f85f a7bd ce8e 52be e59e 443d
00000120: 8636 16be 7c37 f7bd 8cf7 a4bd 641e d9bd
00000130: 8041 c9bc b57c 4f3e a231 cd3d 4102 5e3e
00000140: f92c 213e 7a67 cfbc 5d39 1a3e d001 e8bd
00000150: bd90 543e 095b 423e 43d4 1f3e 9a0c 06be
00000160: 27d9 8d3c fa68 64be 254b 7b3d 0fc1 463e
00000170: 8e0e e33d d6f3 afbc 13b3 883d fb48 3a3e
00000180: 0c7a 94bd 551d 0abd 6fdd 533e dd20 7f3e
00000190: 7b44 413e 1e44 33be 7ca7 07be aaea af3d
000001a0: 737b 01bd b968 923d acf8 4fbe fadb 73be
000001b0: 25df 293e 205b a7bd 24b3 43be 2040 9ebd
000001c0: 9e85 04be e689 f4bd 8c7b 37be 34b8 fbbd
000001d0: 144c bdbd ac5d 6cbe fe3a 5fbe 8a51 a8bd
000001e0: 2787 703e 52e3 4abe a1ca 5d3e a05d dcbd
000001f0: d2c5 40be 3398 603e 8e0e c43d 7898 65be

out.weight f4 [4, 128]
-0.00028549135 0.05291817 0.022460757 -0.050082285 -0.051989157 -0.08501034 -0.07511565 -0.018213168
-0.05811809 -0.037472636 0.08168291 -0.04849864 -0.017461332 -0.043266226 0.088131495 -0.068857916
-0.06733621 -0.0092741875 0.0827897 -0.07617344 -0.072793566 0.024656793 0.07199836 -0.0050569796
0.05146684 -0.03451066 0.054116596 -0.019709738 -0.04046584 -0.042856023 0.069889225 0.057485346
0.087303095 -0.050036516 0.06542321 -0.013454409 0.058503024 -0.023873592 0.0030488372 -0.07754601
8.410727e-05 -0.06860165 -0.0061965757 0.053984467 -0.02689223 -0.038305424 -0.05217863 -0.041306734
0.066658445 -0.07383751 -0.003789576 0.014822729 0.079898916 -0.040211536 0.04574766 -0.06526424
-0.026985731 -0.025404245 -0.019124674 0.07206199 -0.037825223 -0.07402941 0.044680465 0.059751276
0.011846639 -0.06641083 -0.034822937 -0.01320802 0.063765176 0.076329224 0.08087321 -0.05169653
0.077761374 0.066807605 -0.026226077 -0.0018109679 -0.019691385 -0.07947505 -0.0599282 0.057905275
0.061386514 -0.02385726 -0.008569481 -0.04621854 -0.0027491844 -0.05738545 0.08270914 0.07849725
0.08124951 0.082057334 0.0071278117 0.01564983 0.011459779 -0.0027106279 0.07402668 -0.0517497
0.041070603 0.04997921 -0.08682409 0.08617864 0.0065016053 -0.012393966 0.034480423 -0.039235026
-0.076064065 0.04388079 0.057044692 0.08020865 0.046674225 -0.028211605 0.0015538931 -0.08027786
-0.011864057 -0.07919679 -0.0046203807 0.042676218 -0.06533128 0.0059792697 -0.08817877 -0.028095843
0.016615262 -0.004973352 -0.07541323 0.019451931 -0.044024576 0.049321968 0.033513166 0.032203004
-0.087635845 -0.07116691 0.06635905 0.001975132 0.08707138 0.058008544 -0.07680114 -0.016020253
0.0581005 0.010394245 0.069888376 -0.0794245 0.057218272 -0.022794448 -0.011489473 0.017721176
0.06573639 -0.035966024 -0.0336645 -0.0768791 0.0028051564 0.027213214 0.07924941 0.05812456
-0.042462718 -0.039991636 0.03169998 -0.023016552 -0.029775029 -0.08402924 -0.042692922 -0.04913214
0.08142147 0.0750634 0.016868709 0.035339657 0.035406716 0.04305515 -0.035284784 -0.0024303943
-0.06832366 0.04343427 -0.027952207 -0.027026938 -0.0504795 -0.06034575 0.028194785 0.016669123
-0.06932887 -0.05248041 0.00039600363 0.017802283 -0.06443533 0.062987655 -0.081683084 0.08189193
-0.06887054 0.08793125 -0.013194847 0.028229697 -0.08349175 -0.026680376 -0.058380213 0.04397968
-0.049423166 0.007392709 -0.085784696 0.06040019 -0.039554395 0.06651025 -0.08636769 0.010403473
-0.042045865 -0.03947779 -0.003453821 0.04205937 -0.0785806 0.029305076 0.02895922 0.06116796
0.059468914 0.08746157 0.0047451085 -0.069608316 0.06212828 -0.059581302 0.031832423 -0.03504698
0.040758375 0.08533505 -0.004826369 0.022234617 -0.026713628 -0.056312088 -0.064734325 -0.025506036
0.0531305 0.07221105 0.024356617 0.061456863 0.08831609 -0.07132213 -0.021016933 0.04935609
-0.034736797 -0.023059826 0.039592408 -0.06340937 0.013369424 -0.04462429 0.06456355 0.018390127
0.081134066 -0.07254208 -0.07904033 -0.0055436417 -0.0026090816 -0.0066599622 -0.07777147 -0.069294594
-0.00031631658 -0.0691071 0.05840004 -0.073619194 -0.023916058 0.021782538 -0.02612967 0.083092354
00000000: 00ae 95b9 b9c0 583d 9fff b73c 1523 4dbd
00000010: 95f2 54bd e719 aebd 3cd6 99bd c833 95bc
00000020: 3c0d 6ebd e87c 19bd 5f49 a73d 83a6 46bd
00000030: 110b 8fbc ed37 31bd 497e b43d 6105 8dbd
00000040: 91e7 89bd c3f2 17bc a58d a93d d200 9cbd
00000050: cb14 95bd 0bfd c93c e073 933d 05b5 a5bb
00000060: e5ce 523d 0d5b 0dbd 5da9 5d3d 5176 a1bc
00000070: 82bf 25bd cc89 2fbd 1522 8f3d c175 6b3d
00000080: f7cb b23d 17f3 4cbd 9bfc 853d e26f 5cbc
00000090: dea0 6f3d 8d92 c3bc 00cf 473b 71d0 9ebd
000000a0: bf62 b038 067f 8cbd a50c cbbb d11e 5d3d
000000b0: 184d dcbc 26e6 1cbd 42b9 55bd 4031 29bd
000000c0: 3984 883d 1f38 97bd 895a 78bb 08db 723c
000000d0: 0ba2 a33d dab4 24bd e661 3b3d 42a9 85bd
000000e0: 2e11 ddbc 901c d0bc 59ab 9cbc 3d95 933d
000000f0: 9fee 1abd bb9c 97bd dd02 373d c1bd 743d
00000100: 6818 423c 6702 88bd 7fa2 0ebd 7366 58bc
00000110: 5197 823d 7f52 9c3d dba0 a53d bebf 53bd
00000120: 5b41 9f3d 6dd2 883d 12d8 d6bc 005e edba
00000130: d44f a1bc d1c3 a2bd 4677 75bd 152e 6d3d
00000140: 6d70 7b3d 4d70 c3bc 0267 0cbc a74f 3dbd
00000150: a92b 34bb 010d 6bbd 6963 a93d 2bc3 a03d
00000160: 2566 a63d ad0d a83d 6b90 e93b 1334 803c
00000170: ccc1 3b3c caa4 31bb 4d9b 973d 7ef7 53bd
00000180: a639 283d 00b7 4c3d d4d0 b1bd 6d7e b03d
00000190: 6b0b d53b 1010 4bbc 583b 0d3d e8b4 20bd
000001a0: 7ac7 9bbd 58bc 333d b2a7 693d 6f44 a43d
000001b0: 792d 3f3d 061c e7bc 00ac cb3a b868 a4bd
000001c0: 7661 42bc ed31 a2bd 9066 97bb 42cd 2e3d
000001d0: 68cc 85bd c0ed c33b 1297 b4bd 4129 e6bc
000001e0: bb1c 883c 80f7 a2bb 4072 9abd a859 9f3c
000001f0: 1d53 34bd d505 4a3d 1a45 093d 4ce7 033d
00000200: 6c7a b3bd f5bf 91bd 41e7 873d 3771 013b
00000210: 7b52 b23d 5e9a 6d3d eb49 9dbd e83c 83bc
00000220: cafa 6d3d a04c 2a3c a321 8f3d 50a9 a2bd
00000230: b55d 6a3d 6cbb babc 583e 3cbc 002c 913c
00000240: cda0 863d 1c51 13bd c9e3 09bd ca72 9dbd
00000250: b7d6 373b 3fee de3c 844d a23d 0514 6e3d
00000260: 63ed 2dbd 45ce 23bd d7d7 013d 358d bcbc
00000270: c3ea f3bc 8617 acbd c6de 2ebd c83e 49bd
00000280: 4dc0 a63d d7ba 993d 3f30 8a3c 51c0 103d
00000290: a206 113d 995a 303d c786 10bd 4047 1fbb
000002a0: 46ed 8bbd 22e8 313d 07fc e4bc 9967 ddbc
000002b0: 98c3 4ebd 1b2d 77bd c0f8 e63c af8d 883c
000002c0: 4bfc 8dbd b3f5 56bd b59e cf39 18d6 913c
000002d0: acf6 83bd acff 803d 7649 a7bd f5b6 a73d
000002e0: ff0b 8dbd 4d15 b43d 332f 58bc f741 e73c
000002f0: b9fd aabd ce90 dabc 1720 6fbd 0924 343d
00000300: f26f 4abd 8a3e f23b e3af afbd 3166 773d
00000310: ca03 22bd 8736 883d 8be1 b0bd 5473 2a3c
00000320: 4938 2cbd 77b3 21bd 8059 62bb 7246 2c3d
00000330: deee a0bd 3311 f03c e33b ed3c 418b 7a3d
00000340: ad95 733d 0d1f b33d db7c 9b3b ce8e 8ebd
00000350: 397a 7e3d 860b 74bd b762 023d 6c8d 0fbd
00000360: 41f2 263d 25c4 ae3d 8526 9ebb 5f25 b63c
00000370: 8ad6 dabc 81a7 66bd 6e93 84bd 09f2 d0bc
00000380: 5e9f 593d 63e3 933d 8787 c73c 31ba 7b3d
00000390: 11df b43d 5611 92bd b42b acbc 9d29 4a3d
000003a0: 2c48 0ebd f6e7 bcbc a62b 223d c6dc 81bd
000003b0: 6e0b 5b3c f6c7 36bd e539 843d e4a6 963c
000003c0: 9e29 a63d f190 94bd e6df a1bd 70a7 b5bb
000003d0: 20fd 2abb d03b dabb a646 9fbd 53ea 8dbd
000003e0: 4bd7 a5b9 0688 8dbd e134 6f3d a9c5 96bd
000003f0: 9ceb c3bc 4b71 b23c e40d d6bc 532c aa3d

out.bias f4 [4]
0.046204407 0.0023077184 -0.0372114 -0.013872856
00000000: d540 3d3d 173d 173b fb6a 18bd fa4a 63bc

exp_avg f4 [128, 16]
0.0 0.0 0.0 0.0 0.0 0.0 0.0 0.0
0.0 0.0 0.0 0.0 0.0 0.0 0.0 0.0
0.00026450708 0.00031761118 0.00028444862 0.00013893445 0.00036674642 0.00033641208 0.00024676262 -2.3159648e-05
0.00019373109 1.7666232e-05 0.00012938846 -2.7459225e-06 0.0002700932 9.09461e-06 1.1514707e-05 2.373616e-05
-0.0009079433 -0.00077662413 -0.000779394 -0.00050491566 -0.00070700486 -0.0010401563 -0.0009962703 -0.00043183446
-0.0007518632 -0.0006733095 -0.0007502855 -0.0003932449 -0.0008360195 -0.0006769954 -0.0007855626 -0.0004023245
0.0007803829 0.0004726903 0.00034890632 0.0001431725 0.0006890895 0.0005688561 0.0008077194 0.00030099534
0.00063720276 0.0005877327 0.00048722103 0.000263596 0.0008311939 0.00048006146 0.000732515 0.0004045846
-0.0005065392 -0.00068573566 -0.00064357265 -0.00052223395 -0.0004670402 -0.0006111894 -0.0005355167 -0.00028876468
-0.00031918465 -0.0002950322 -0.00040479293 -0.00019066289 -0.0004229131 -2.498766e-05 -0.00037337994 -4.0265568e-05
0.00037212393 0.00023504438 0.00017334077 0.0 0.00011163717 0.00043281293 0.00029769912 0.00011195423
0.0002356785 0.00017498944 0.00023536143 0.0002356785 0.00037212393 0.00011195423 0.00037212393 0.00017334077
1.2700583e-05 1.9756462e-05 4.2335276e-05 1.9756462e-05 1.9756462e-05 5.7858208e-05 3.386822e-05 1.2700583e-05
3.386822e-05 4.2335276e-05 1.9756462e-05 2.681234e-05 0.0 1.9756462e-05 2.681234e-05 1.2700583e-05
-2.2285958e-05 3.3640237e-05 7.208622e-05 3.3640237e-05 2.1625867e-05 7.208622e-05 3.3640237e-05 0.0
2.1625867e-05 0.0 2.1625867e-05 0.0 2.1625867e-05 -4.3911827e-05 0.0 0.0
0.00044384357 0.0002179754 0.00017556423 0.0 0.00013315308 0.0003852539 0.00035507485 0.00016471584
0.00028110092 0.0003396906 0.00024953816 0.00028110092 0.00044384357 0.00016471584 0.00044384357 0.00017556423
0.0 0.0 0.0 0.0 0.0 0.0 0.0 0.0
0.0 0.0 0.0 0.0 0.0 0.0 0.0 0.0
-0.0012596329 -0.0008958775 -0.00096836 -0.0005876313 -0.0009465731 -0.0014860703 -0.0013450716 -0.0005412458
-0.0011342281 -0.0009351284 -0.0010975463 -0.0005225384 -0.0012135463 -0.0011779376 -0.0011491246 -0.0006823201
0.00027608342 0.0004179116 0.0007424805 0.0003328331 0.00019178013 0.0005090158 0.000804824 0.0003221423
0.00031432498 0.00036624726 0.00047407858 0.0003072809 0.00021034433 0.0003851109 0.00036496736 0.00031996958
-4.7706093e-05 -7.271035e-06 -4.5623136e-05 -3.2071577e-05 -7.271035e-06 -2.0676187e-05 -8.043448e-05 -5.043389e-05
-2.912303e-05 -8.5910644e-05 -4.7243597e-05 -7.72765e-05 -5.068108e-05 -5.7375513e-05 -0.00011359422 -4.8928672e-05
0.0 0.0 0.0 0.0 0.0 0.0 0.0 0.0
0.0 0.0 0.0 0.0 0.0 0.0 0.0 0.0
0.0 0.0 0.0 0.0 0.0 0.0 0.0 0.0
0.0 0.0 0.0 0.0 0.0 0.0 0.0 0.0
0.0 0.0 0.0 0.0 0.0 0.0 0.0 0.0
0.0 0.0 0.0 0.0 0.0 0.0 0.0 0.0
00000000: 0000 0000 0000 0000 0000 0000 0000 0000
00000010: 0000 0000 0000 0000 0000 0000 0000 0000
00000020: 0000 0000 0000 0000 0000 0000 0000 0000
00000030: 0000 0000 0000 0000 0000 0000 0000 0000
00000040: 8aad 8a39 0d85 a639 0c22 9539 efae 1139
00000050: df47 c039 7760 b039 eb5f 8139 f746 c2b7
00000060: 4b24 4b39 f231 9437 73ac 0739 9746 38b6
00000070: 4c9b 8d39 0d95 1837 4a2f 4137 041d c737
00000080: 0b03 6eba 5d96 4bba 3f50 4cba 515c 04ba
00000090: 4b56 39ba db55 88ba 4995 82ba d767 e2b9
000000a0: af18 45ba 0981 30ba cfae 44ba 702c ceb9
000000b0: 5228 5bba 6478 31ba 37ee 4dba 15ef d2b9
000000c0: 9c92 4c3a 6bd3 f739 6aed b639 9320 1639
000000d0: 03a4 343a 491f 153a 22bd 533a e9ce 9d39
000000e0: f409 273a 1312 1a3a b371 ff39 4233 8a39
000000f0: 7ae4 593a c2b0 fb39 4006 403a 6d1e d439
00000100: 45c9 04ba f1c2 33ba 6eb5 28ba 87e6 08ba
00000110: 13dd f4b9 3a38 20ba eb61 0cba 5765 97b9
00000120: 3d58 a7b9 8dae 9ab9 633a d4b9 aeec 47b9
00000130: 6fba ddb9 979c d1b7 35c2 c3b9 d3e2 28b8
00000140: a119 c339 3f76 7639 cfc2 3539 0000 0000
00000150: c01e ea38 2beb e239 8014 9c39 f8c8 ea38
00000160: 7720 7739 5f7d 3739 5acb 7639 7720 7739
00000170: a119 c339 f8c8 ea38 a119 c339 cfc2 3539
00000180: 9714 5537 aeba a537 2891 3138 aeba a537
00000190: aeba a537 c7ac 7238 b90d 0e38 9714 5537
000001a0: b90d 0e38 2891 3138 aeba a537 10eb e037
000001b0: 0000 0000 aeba a537 10eb e037 9714 5537
000001c0: bbf2 bab7 ee18 0d38 ff2c 9738 ee18 0d38
000001d0: 3269 b537 ff2c 9738 ee18 0d38 0000 0000
000001e0: 3269 b537 0000 0000 3269 b537 0000 0000
000001f0: 3269 b537 f72d 38b8 0000 0000 0000 0000
00000200: adb3 e839 5390 6439 aa17 3839 0000 0000
00000210: 029f 0b39 e7fb c939 5729 ba39 92b7 2c39
00000220: ba60 9339 8018 b239 72d4 8239 ba60 9339
00000230: adb3 e839 92b7 2c39 adb3 e839 aa17 3839
00000240: 0000 0000 0000 0000 0000 0000 0000 0000
00000250: 0000 0000 0000 0000 0000 0000 0000 0000
00000260: 0000 0000 0000 0000 0000 0000 0000 0000
00000270: 0000 0000 0000 0000 0000 0000 0000 0000
00000280: 441a a5ba 52d9 6aba 8ad9 7dba 450b 1aba
00000290: 7223 78ba 3fc8 c2ba 1d4d b0ba 64e2 0dba
000002a0: 61aa 94ba 6823 75ba 8bdb 8fba f5fa 08ba
000002b0: db0f 9fba 0765 9aba 399e 96ba badd 32ba
000002c0: 4abf 9039 251b db39 06a3 423a 1a80 ae39
000002d0: 9618 4939 796f 053a d3fa 523a 35e5 a839
000002e0: fccb a439 e004 c039 c08d f839 8b1a a139
000002f0: e08f 5c39 b6e8 c939 1759 bf39 97c1 a739
00000300: 0718 48b8 b7f9 f3b6 785b 3fb8 9884 06b8
00000310: b7f9 f3b6 c671 adb7 efae a8b8 fa88 53b8
00000320: 3b4d f4b7 ed2a b4b8 6d27 46b8 810f a2b8
00000330: 6592 54b8 7da6 70b8 6f39 eeb8 c338 4db8
00000340: 0000 0000 0000 0000 0000 0000 0000 0000
00000350: 0000 0000 0000 0000 0000 0000 0000 0000
00000360: 0000 0000 0000 0000 0000 0000 0000 0000
00000370: 0000 0000 0000 0000 0000 0000 0000 0000
00000380: 0000 0000 0000 0000 0000 0000 0000 0000
00000390: 0000 0000 0000 0000 0000 0000 0000 0000
000003a0: 0000 0000 0000 0000 0000 0000 0000 0000
000003b0: 0000 0000 0000 0000 0000 0000 0000 0000
000003c0: 0000 0000 0000 0000 0000 0000 0000 0000
000003d0: 0000 0000 0000 0000 0000 0000 0000 0000
000003e0: 0000 0000 0000 0000 0000 0000 0000 0000
000003f0: 0000 0000 0000 0000 0000 0000 0000 0000

exp_avg_sq f4 [128, 16]
0.0 0.0 0.0 0.0 0.0 0.0 0.0 0.0
0.0 0.0 0.0 0.0 0.0 0.0 0.0 0.0
6.9963995e-09 1.0087686e-08 8.091102e-09 1.930278e-09 1.3450295e-08 1.131731e-08 6.0891785e-09 5.3636928e-11
3.7531733e-09 3.1209577e-11 1.674137e-09 7.54009e-13 7.295035e-09 8.271192e-12 1.3258847e-11 5.6340533e-11
8.243611e-08 6.0314505e-08 6.0745506e-08 2.5493982e-08 4.998559e-08 1.0819254e-07 9.925546e-08 1.86481e-08
5.652982e-08 4.533457e-08 5.629283e-08 1.5464156e-08 6.989287e-08 4.5832277e-08 6.1710864e-08 1.6186501e-08
6.089975e-08 2.2343613e-08 1.2173562e-08 2.0498365e-09 4.7484434e-08 3.2359726e-08 6.524106e-08 9.05982e-09
4.060274e-08 3.454298e-08 2.3738435e-08 6.9482855e-09 6.908833e-08 2.30459e-08 5.3657825e-08 1.636887e-08
2.5658194e-08 4.702334e-08 4.1418577e-08 2.7272828e-08 2.1812657e-08 3.735525e-08 2.8677817e-08 8.338505e-09
1.0187883e-08 8.7044e-09 1.6385732e-08 3.6352337e-09 1.7885547e-08 6.2438305e-11 1.3941259e-08 1.621316e-10
1.3847623e-08 5.524586e-09 3.0047025e-09 0.0 1.2462859e-09 1.8732704e-08 8.862477e-09 1.253375e-09
5.5544356e-09 3.0621308e-09 5.5395e-09 5.5544356e-09 1.3847623e-08 1.253375e-09 1.3847623e-08 3.0047025e-09
1.613048e-11 3.903178e-11 1.7922756e-10 3.903178e-11 3.903178e-11 3.3475722e-10 1.1470562e-10 1.613048e-11
1.1470562e-10 1.7922756e-10 3.903178e-11 7.189016e-11 0.0 3.903178e-11 7.189016e-11 1.613048e-11
4.9666396e-11 1.13166546e-10 5.1964233e-10 1.13166546e-10 4.6767812e-11 5.1964233e-10 1.13166546e-10 0.0
4.6767812e-11 0.0 4.6767812e-11 0.0 4.6767812e-11 1.9282484e-10 0.0 0.0
1.9699712e-08 4.7513273e-09 3.0822798e-09 0.0 1.7729742e-09 1.4842056e-08 1.2607814e-08 2.7131306e-09
7.901773e-09 1.1538971e-08 6.226929e-09 7.901773e-09 1.9699712e-08 2.7131306e-09 1.9699712e-08 3.0822798e-09
0.0 0.0 0.0 0.0 0.0 0.0 0.0 0.0
0.0 0.0 0.0 0.0 0.0 0.0 0.0 0.0
1.586675e-07 8.0259646e-08 9.377211e-08 3.4531055e-08 8.9600064e-08 2.2084052e-07 1.8092176e-07 2.9294702e-08
1.2864733e-07 8.744652e-08 1.204608e-07 2.7304637e-08 1.4726945e-07 1.387537e-07 1.3204873e-07 4.655607e-08
7.622205e-09 1.746501e-08 5.5127728e-08 1.1077787e-08 3.6779617e-09 2.590971e-08 6.477417e-08 1.0377566e-08
9.8800195e-09 1.3413706e-08 2.2475051e-08 9.442155e-09 4.4244737e-09 1.483104e-08 1.3320118e-08 1.0238052e-08
2.2758714e-10 5.286795e-12 2.0814706e-10 1.0285861e-10 5.286795e-12 4.275047e-11 6.4697064e-10 2.543577e-10
8.481509e-11 7.380639e-10 2.2319575e-10 5.971657e-10 2.5685717e-10 3.2919495e-10 1.2903647e-09 2.3940153e-10
0.0 0.0 0.0 0.0 0.0 0.0 0.0 0.0
0.0 0.0 0.0 0.0 0.0 0.0 0.0 0.0
0.0 0.0 0.0 0.0 0.0 0.0 0.0 0.0
0.0 0.0 0.0 0.0 0.0 0.0 0.0 0.0
0.0 0.0 0.0 0.0 0.0 0.0 0.0 0.0
0.0 0.0 0.0 0.0 0.0 0.0 0.0 0.0
00000000: 0000 0000 0000 0000 0000 0000 0000 0000
00000010: 0000 0000 0000 0000 0000 0000 0000 0000
00000020: 0000 0000 0000 0000 0000 0000 0000 0000
00000030: 0000 0000 0000 0000 0000 0000 0000 0000
00000040: fb64 f031 1d4e 2d32 0b01 0b32 cfa5 0431
00000050: 0613 6732 0e6e 4232 fb38 d131 d0e5 6b2e
00000060: 43f5 8031 dc42 092e 7617 e630 133c 542b
00000070: cea7 fa31 2382 112d 8a40 692d cdc9 772e
00000080: bb07 b133 4086 8133 3273 8233 dcfd da32
00000090: bdaf 5633 7a57 e833 4426 d533 9b2f a032
000000a0: 32cb 7233 e3b5 4233 9fc6 7133 0ad6 8432
000000b0: 0318 9633 1fd9 4433 e885 8433 7e0a 8b32
000000c0: fec7 8233 20ee bf32 e423 5132 1bdd 0c31
000000d0: b0f1 4b33 e5fb 0a33 a71a 8c33 82a5 1b32
000000e0: 2f63 2e33 685c 1433 5fe9 cb32 c4bd ee31
000000f0: b65d 9433 78f6 c532 6775 6633 879b 8c32
00000100: f766 dc32 b6f6 4933 35e4 3133 9545 ea32
00000110: 8a5e bb32 8870 2033 3057 f632 2241 0f32
00000120: c906 2f32 5b8a 1532 9bc0 8c32 b5cf 7931
00000130: bca2 9932 a44d 892e 4e82 6f32 fd43 322f
00000140: 7de6 6d32 c6d2 bd31 497b 4e31 0000 0000
00000150: c949 ab30 a7e9 a032 9641 1832 3643 ac30
00000160: 55d9 be31 936d 5231 f555 be31 55d9 be31
00000170: 7de6 6d32 3643 ac30 7de6 6d32 497b 4e31
00000180: 9de2 8d2d e1a9 2b2e 1310 452f e1a9 2b2e
00000190: e1a9 2b2e e408 b82f 863d fc2e 9de2 8d2d
000001a0: 863d fc2e 1310 452f e1a9 2b2e 9016 9e2e
000001b0: 0000 0000 e1a9 2b2e 9016 9e2e 9de2 8d2d
000001c0: 646f 5a2e 1adb f82e 94d6 0e30 1adb f82e
000001d0: e0af 4d2e 94d6 0e30 1adb f82e 0000 0000
000001e0: e0af 4d2e 0000 0000 e0af 4d2e 0000 0000
000001f0: e0af 4d2e 5e03 542f 0000 0000 0000 0000
00000200: 2038 a932 1e41 a331 0ad0 5331 0000 0000
00000210: fcac f330 0dfc 7e32 c199 5832 e671 3a31
00000220: 5dc0 0732 ee3c 4632 a6f4 d531 5dc0 0732
00000230: 2038 a932 e671 3a31 2038 a932 0ad0 5331
00000240: 0000 0000 0000 0000 0000 0000 0000 0000
00000250: 0000 0000 0000 0000 0000 0000 0000 0000
00000260: 0000 0000 0000 0000 0000 0000 0000 0000
00000270: 0000 0000 0000 0000 0000 0000 0000 0000
00000280: 315e 2a34 355b ac33 c35f c933 4c4f 1433
00000290: 286a c033 2e20 6d34 6543 4234 bba3 fb32
000002a0: 4f22 0a34 3cca bb33 0358 0134 888b ea32
000002b0: 1e21 1e34 54fc 1434 47c9 0d34 f1f4 4733
000002c0: d0f2 0232 f705 9632 94c5 6c33 9f50 3e32
000002d0: 63bf 7c31 0e90 de32 fa19 8b33 0549 3232
000002e0: c9bc 2932 1a72 6632 290f c132 0937 2232
000002f0: 1506 9831 9bcb 7e32 80d6 6432 6ee3 2f32
00000300: 163c 7a2f 3703 ba2c 30dc 642f 4030 e22e
00000310: 3703 ba2c c004 3c2e 83d6 3130 aad5 8b2f
00000320: a782 ba2e a1e0 4a30 0568 752f cd25 2430
00000330: 6f35 8d2f 12fa b42f ac58 b130 c59c 832f
00000340: 0000 0000 0000 0000 0000 0000 0000 0000
00000350: 0000 0000 0000 0000 0000 0000 0000 0000
00000360: 0000 0000 0000 0000 0000 0000 0000 0000
00000370: 0000 0000 0000 0000 0000 0000 0000 0000
00000380: 0000 0000 0000 0000 0000 0000 0000 0000
00000390: 0000 0000 0000 0000 0000 0000 0000 0000
000003a0: 0000 0000 0000 0000 0000 0000 0000 0000
000003b0: 0000 0000 0000 0000 0000 0000 0000 0000
000003c0: 0000 0000 0000 0000 0000 0000 0000 0000
000003d0: 0000 0000 0000 0000 0000 0000 0000 0000
000003e0: 0000 0000 0000 0000 0000 0000 0000 0000
000003f0: 0000 0000 0000 0000 0000 0000 0000 0000

exp_avg f4 [128]
0.0 0.0026295907 -0.0061406945 0.004177682 -0.004111619 0.001240413 0.00014111759 -0.00024762176
0.0014794786 0.0 -0.0076675364 0.0036212113 -0.00039801965 0.0 0.0 0.0
0.0 0.00120067 -0.0023659475 0.0 0.0089700455 -0.0009774645 -0.002051919 -0.00035099612
-0.00021413574 0.0 -0.0011541909 -0.00073929114 0.0063487845 0.0 0.0 -0.004327412
-0.0049468637 -0.00034534375 -0.003924105 -0.0050151604 0.0 0.0020035568 0.0 0.00022322852
0.0042255376 0.0 0.0020681012 0.00024051544 0.0 0.0032042437 0.0 -7.0117756e-05
0.0 0.0037544803 0.0044556037 0.0 0.0016599039 0.0005631495 0.0 -0.00042749871
0.0032672917 0.0 -0.0036344198 -0.005354769 0.0041908235 0.0 0.00085599575 -0.0069513507
0.0 -0.001199871 0.007819548 5.9865702e-05 -0.0015914765 0.0 0.0 0.0006262107
0.0 0.0 0.0 0.0 0.0 0.0059652817 0.005801011 -0.0008791964
-0.010885985 -0.00046018432 -0.002584446 0.0 -0.0062922747 0.002826425 -0.0033701637 0.0
-0.003422719 0.0 0.00094190205 -0.005099064 0.0021997436 0.0011345303 0.00032347345 0.008235906
0.0 -0.0008131062 0.0021791237 -0.008950942 0.0002854136 0.0 0.0 0.0017330202
0.005300294 4.98725e-05 0.0 0.0 0.0013048565 0.0 0.0 0.0
-0.00012762363 -0.00065516 0.0 0.0 0.0 0.0 0.0 0.0016212804
-0.0040024817 0.0 -0.0008685048 0.0 0.0 0.0017448621 0.0010387424 0.0
00000000: 0000 0000 3655 2c3b e137 c9bb f0e4 883b
00000010: c3ba 86bb 5b95 a23a f7f8 1339 3bd3 81b9
00000020: 10eb c13a 0000 0000 f53f fbbb d851 6d3b
00000030: 4bad d0b9 0000 0000 0000 0000 0000 0000
00000040: 0000 0000 cd5f 9d3a 030e 1bbb 0000 0000
00000050: 19f7 123c 441e 80ba 7d79 06bb e705 b8b9
00000060: a089 60b9 0000 0000 3848 97ba fdcc 41ba
00000070: 7709 d03b 0000 0000 0000 0000 f7cc 8dbb
00000080: 4d19 a2bb 410f b5b9 c795 80bb 3756 a4bb
00000090: 0000 0000 1b4e 033b 0000 0000 7312 6a39
000000a0: 6176 8a3b 0000 0000 fb88 073b df32 7c39
000000b0: 0000 0000 4afe 513b 0000 0000 2f0c 93b8
000000c0: 0000 0000 ba0d 763b 5000 923b 0000 0000
000000d0: 2291 d93a 53a0 133a 0000 0000 e821 e0b9
000000e0: 0f20 563b 0000 0000 722f 6ebb 0f77 afbb
000000f0: 2d53 893b 0000 0000 e764 603a 28c8 e3bb
00000100: 0000 0000 fd44 9dba 901d 003c 4f18 7b38
00000110: 1799 d0ba 0000 0000 0000 0000 4a28 243a
00000120: 0000 0000 0000 0000 0000 0000 0000 0000
00000130: 0000 0000 6978 c33b 6816 be3b df79 66ba
00000140: 215b 32bc e544 f1b9 cf5f 29bb 0000 0000
00000150: 6d2f cebb 8b3b 393b f7dd 5cbb 0000 0000
00000160: b24f 60bb 0000 0000 fae9 763a 0d16 a7bb
00000170: 9329 103b 85b4 943a df97 a939 e5ef 063c
00000180: 0000 0000 a226 55ba a1cf 0e3b f9a6 12bc
00000190: 91a3 9539 0000 0000 0000 0000 8226 e33a
000001a0: 17ae ad3b 302e 5138 0000 0000 0000 0000
000001b0: b807 ab3a 0000 0000 0000 0000 0000 0000
000001c0: b5d2 05b9 0bbf 2bba 0000 0000 0000 0000
000001d0: 0000 0000 0000 0000 0000 0000 2581 d43a
000001e0: 4027 83bb 0000 0000 5fac 63ba 0000 0000
000001f0: 0000 0000 dbb3 e43a 6926 883a 0000 0000

exp_avg_sq f4 [128]
0.0 6.9147467e-07 3.770813e-06 1.7453029e-06 1.6905411e-06 1.5386244e-07 1.9914173e-09 6.131653e-09
2.1888569e-07 0.0 5.8791115e-06 1.3113172e-06 1.5841966e-08 0.0 0.0 0.0
0.0 1.4416085e-07 5.597707e-07 0.0 8.046172e-06 9.554369e-08 4.2103716e-07 1.2319828e-08
4.585412e-09 0.0 1.3321566e-07 5.465514e-08 4.0307064e-06 0.0 0.0 1.8726495e-06
2.447146e-06 1.1926231e-08 1.5398598e-06 2.5151837e-06 0.0 4.0142402e-07 0.0 4.9830975e-09
1.7855168e-06 0.0 4.277042e-07 5.7847673e-09 0.0 1.0267178e-06 0.0 4.9164994e-10
0.0 1.4096122e-06 1.9852405e-06 0.0 2.755281e-07 3.1713736e-08 0.0 1.8275516e-08
1.0675195e-06 0.0 1.3209007e-06 2.8673549e-06 1.7563002e-06 0.0 7.327287e-08 4.8321276e-06
0.0 1.4396903e-07 6.114534e-06 3.583902e-10 2.5327972e-07 0.0 0.0 3.9213983e-08
0.0 0.0 0.0 0.0 0.0 3.5584587e-06 3.365173e-06 7.729863e-08
1.1850467e-05 2.117696e-08 6.679361e-07 0.0 3.9592724e-06 7.9886786e-07 1.1358003e-06 0.0
1.1715005e-06 0.0 8.871795e-08 2.6000455e-06 4.8388716e-07 1.287159e-07 1.0463506e-08 6.7830156e-06
0.0 6.611417e-08 4.74858e-07 8.011936e-06 8.146094e-09 0.0 0.0 3.003359e-07
2.8093116e-06 2.4872662e-10 0.0 0.0 1.7026505e-07 0.0 0.0 0.0
1.6287791e-09 4.292346e-08 0.0 0.0 0.0 0.0 0.0 2.6285505e-07
1.6019861e-06 0.0 7.543006e-08 0.0 0.0 3.044544e-07 1.0789857e-07 0.0
00000000: 0000 0000 c79d 3935 130e 7d36 2740 ea35
00000010: 8de6 e235 6335 2534 62d9 0831 97ae d231
00000020: d706 6b34 0000 0000 2f45 c536 8400 b035
00000030: da14 8832 0000 0000 0000 0000 0000 0000
00000040: 0000 0000 a2ca 1a34 2643 1635 0000 0000
00000050: 0cfe 0637 b32d cd33 e80a e234 2da7 5332
00000060: b68d 9d31 0000 0000 0b0a 0f34 f6bd 6a33
00000070: 813f 8736 0000 0000 0000 0000 bf57 fb35
00000080: a639 2436 1ee4 4c32 2ead ce35 87ca 2836
00000090: 0000 0000 4c83 d734 0000 0000 ca37 ab31
000000a0: e4a5 ef35 0000 0000 389f e534 5ac3 c631
000000b0: 0000 0000 c1cd 8935 0000 0000 ca24 0730
000000c0: 0000 0000 e831 bd35 2c3a 0536 0000 0000
000000d0: 4bec 9334 9f35 0833 0000 0000 49fc 9c32
000000e0: b147 8f35 0000 0000 cd49 b135 c86c 4036
000000f0: 04ba eb35 0000 0000 305a 9d33 a923 a236
00000100: 0000 0000 e895 1a34 722b cd36 f006 c52f
00000110: 80fa 8734 0000 0000 0000 0000 3b6c 2833
00000120: 0000 0000 0000 0000 0000 0000 0000 0000
00000130: 0000 0000 dbcd 6e36 3bd5 6136 5fff a533
00000140: 5ed1 4637 a1e8 b532 384c 3335 0000 0000
00000150: e4d9 8436 c871 5635 cd71 9835 0000 0000
00000160: 733c 9d35 0000 0000 3585 be33 717c 2e36
00000170: 79e4 0135 2835 0a34 fcc2 3332 a999 e336
00000180: 0000 0000 a6fa 8d33 fdef fe34 016b 0637
00000190: e6f2 0b32 0000 0000 0000 0000 da3d a134
000001a0: 9b87 3c36 29bd 882f 0000 0000 0000 0000
000001b0: 1ad2 3634 0000 0000 0000 0000 0000 0000
000001c0: 92db df30 d85a 3833 0000 0000 0000 0000
000001d0: 0000 0000 0000 0000 0000 0000 861e 8d34
000001e0: d303 d735 0000 0000 1dfc a133 0000 0000
000001f0: 0000 0000 e573 a334 deb5 e733 0000 0000
